EQ/best_model.pth (torch, 3899 bytes, 3 tensors)

hidden_weights.weight f4 [12, 25]
000000 c5 ef 12 3a 77 88 5a bd 6f 69 8d 3c 28 af fe 3c
       0.00056051865 -0.0533528 0.017262189 0.03108938
000010 54 69 67 bd a0 1c 92 3d 2e 6f d2 bc 46 73 76 bd
       -0.056496933 0.07134366 -0.02568778 -0.060168527
000020 d0 41 1a 3e b5 10 1b be 70 8d cf be 30 ab 1c bf
       0.15064168 -0.15143092 -0.40537596 -0.6119871
000030 55 94 3c bf 4d 23 5b 3f f2 fd 0d 3f b8 e0 e6 be
       -0.73663837 0.8560074 0.55465615 -0.45093322
000040 c1 be 02 3e 7e f3 b9 3d 6e 65 f6 bd 4a 12 75 3d
       0.1276808 0.090796456 -0.12031065 0.059831895
000050 89 b8 e5 bb 4d 61 75 bc 69 6b b4 bb e4 b1 02 3f
       -0.0070105237 -0.014976812 -0.0055059684 0.5105269
000060 2b ad 89 3e 5d bb 72 bd d4 5a 6f bc d2 93 32 bd
       0.2688993 -0.059260715 -0.014609057 -0.043598004
000070 01 82 1c bb ca e6 35 3d ea d5 86 3d 44 34 39 bd
       -0.00238812 0.04440955 0.065837696 -0.04521586
000080 10 98 95 3c a1 72 b9 3d 3d 4d 95 3e 81 0a 38 3e
       0.018260986 0.09055067 0.2916049 0.17972757
000090 15 8a 02 bf 5c 70 1b 3c 5a 11 02 be 85 f8 0e be
       -0.50991946 0.009487238 -0.12701932 -0.1396199
0000a0 b1 bf c6 3d dd 5e d6 bb 5e 8c 08 be d9 fe 05 3c
       0.09704531 -0.0065420703 -0.13334796 0.008178436
0000b0 52 75 32 3c 6e ab 7b bd 2d 02 39 3d 8c f2 4e 3d
       0.010892229 -0.061442785 0.04516809 0.05052428
0000c0 21 19 31 3e d4 a9 b9 3e 8d 00 04 3b 15 98 af 3d
       0.17294742 0.3626238 0.002014193 0.08573929
0000d0 62 8e 0b be dd b2 e2 3d d4 83 ed bd 71 48 b3 3d
       -0.13628533 0.11069272 -0.1159741 0.087540515
0000e0 eb 05 94 bc 85 42 90 bd bb 7c f3 3d 9a d3 70 bb
       -0.018069228 -0.070439376 0.11889025 -0.0036747218
0000f0 e5 07 04 bf 97 8c 3c bf 58 85 86 bf 7d 4f 93 be
       -0.51574546 -0.73652023 -1.0509443 -0.28771582
000100 1b 85 18 3f 3b b1 f3 be 00 73 7a 3e 8e 9e d5 3c
       0.595781 -0.47596154 0.24457932 0.026076581
000110 d1 f7 48 be ac 2a 54 3e a5 2d 1e be fa 5d f0 3d
       -0.19625784 0.20719403 -0.154471 0.117366746
000120 3d ae 99 bd f8 f8 18 3f d6 2b 5e 3e 86 37 6d be
       -0.075039364 0.59754896 0.2169641 -0.23165712
000130 aa bb 49 3e 5e 61 93 bd d7 50 a7 3d fa 84 7a 3b
       0.19700494 -0.07196306 0.08169716 0.0038226233
000140 41 d4 0d be 9a df 9a 3d 1d 99 69 3d 5f d6 85 bd
       -0.138505 0.0756218 0.057030786 -0.06535029
000150 f7 79 14 be bb ff 26 bf 58 7c 70 bf 4f 1d 5a bf
       -0.14499651 -0.65233964 -0.93939734 -0.8520097
000160 95 b1 9a be 94 12 a7 3e f7 5f 28 be 8f ed b8 3d
       -0.3021361 0.3263136 -0.16442858 0.09029686
000170 05 15 21 bd 0b 75 1c be 62 94 c9 3d 44 88 1a 3c
       -0.039326686 -0.15279023 0.09842755 0.009431902
000180 8b ec 88 3c 5b 93 80 3a 08 3c a6 3e 3c 03 30 3e
       0.016714355 0.000980954 0.32467675 0.17188734
000190 53 7b 80 bc 45 87 6d 3d 57 9d 61 bc fc 52 c5 3c
       -0.015683806 0.05799033 -0.013770423 0.024087422
0001a0 f5 12 0d 3d 40 8b d1 bd 30 4a 38 3e 72 7a 7b be
       0.034441907 -0.10231638 0.1799705 -0.24558428
0001b0 52 6c 23 3e 8a 72 8c 3b 3e 3d e7 be 22 08 09 bf
       0.1595929 0.004286115 -0.45163912 -0.53528035
0001c0 42 50 a2 bf d4 36 9e be e3 8e 0f 3f 1f 11 90 be
       -1.2680743 -0.30901206 0.560774 -0.28138062
0001d0 81 ab 5b bd 23 81 5d 3e c4 dd 37 be d3 dd ab bc
       -0.053630356 0.21631293 -0.1795569 -0.020979797
0001e0 6a ab d9 3d 29 07 45 bd c5 fb bd 3c b6 2c 16 3f
       0.10628398 -0.04810253 0.023191342 0.58661973
0001f0 42 32 11 3e 72 37 8c 3d 40 68 76 bd 6d 34 a3 3c
       0.14179328 0.06846513 -0.060158014 0.01992246
000200 02 47 a0 3c e5 7a 81 bc f5 a7 03 3a 13 7e 32 3d
       0.01956511 -0.015805671 0.0005022281 0.043577265
000210 64 d9 fe bc 73 4b 3a 3d a5 eb 1d 3d 16 f3 73 be
       -0.03110952 0.04548211 0.038554806 -0.23823199
000220 2d 84 34 be cf 58 59 be e7 2e 27 bf a4 a4 40 be
       -0.17628546 -0.21225284 -0.6530594 -0.18812805
000230 b7 5d 8d bd 1b 54 aa 3e ca 0b c6 bd b7 a8 01 3d
       -0.0690264 0.33267292 -0.09670217 0.03165504
000240 d9 43 7c 3c e6 53 5d bc d5 82 da 3c f9 48 07 bc
       0.0153970355 -0.0135087725 0.026673714 -0.008257144
000250 14 8d 0e 3e 94 f3 9e 3d 69 74 dc 3c ce 73 2f 3c
       0.13921005 0.077613026 0.026910977 0.010708762
000260 96 48 e2 bc 68 82 5d 3d 89 d8 f0 bb 7c 9f 00 bd
       -0.027622502 0.054079443 -0.0073500318 -0.031402096
000270 02 af dd 3d 6f d2 49 be 79 06 11 3e ec ce 99 bc
       0.10824396 -0.1970918 0.14162625 -0.018775426
000280 c6 6e 2d bf b3 61 91 bf 6f 33 ee bf 69 e9 f2 be
       -0.6774715 -1.135794 -1.8609446 -0.47443703
000290 62 a1 58 3f 66 5e c2 be b1 6e 73 bd 09 ea a2 3e
       0.8462125 -0.37962645 -0.059431735 0.3181918
0002a0 30 a9 91 be 8d 34 09 3e 5b 5d 83 3c 23 ff 8a bd
       -0.28449392 0.13398953 0.016035726 -0.06786945
0002b0 de 8d 89 3d 17 33 69 3f 15 65 64 3e a8 20 45 bc
       0.06716512 0.9109358 0.22304185 -0.012031712
0002c0 a4 7b d3 bc b1 35 be 3d 3e 4f d4 bd 48 63 9a 3c
       -0.025815792 0.092875846 -0.10366677 0.01884617
0002d0 e8 e2 36 3d a4 73 50 be ff 4c 2d 3e 1c 63 55 3c
       0.04464999 -0.20356613 0.16923903 0.013024118
0002e0 d2 ea 3c be f9 c6 05 be 32 3e 5c 3d f4 c6 81 be
       -0.18448952 -0.13064183 0.05377025 -0.25347102
0002f0 19 06 e0 bd 21 be 39 bb f5 fd fd bd 5b 72 64 bd
       -0.10938663 -0.0028342085 -0.12401954 -0.05577312
000300 4a 29 03 bd 5e 17 9e bc a5 e7 6b 3c 92 db a2 ba
       -0.0320218 -0.019298252 0.01439849 -0.0012425056
000310 6f 3a 99 bc ac ec 3f 3c 85 b6 e7 3b 8e cb 2d 3e
       -0.018704621 0.011714142 0.0070713186 0.16972181
000320 c6 38 ea 3c e5 e7 84 bd 68 d1 6a 3d 1a 2f 9c bd
       0.028591525 -0.06489543 0.05732861 -0.076261714
000330 b5 ac 78 3d 2e 03 6b bc 8c e1 aa bc bd f8 9a 3d
       0.06071158 -0.01434402 -0.020859502 0.07566974
000340 ec b7 0e be 15 ba 44 3e b7 fc c5 3e 18 0c d7 3e
       -0.13937348 0.1921161 0.3866937 0.42001414
000350 e0 d0 86 3e 4e fd 4c bf e2 da f5 be 23 7a 33 3f
       0.26331234 -0.8007401 -0.48018557 0.7010824
000360 10 e9 ac be f8 be 85 bd 19 eb 92 3e 88 72 aa be
       -0.33771563 -0.06530565 0.2869499 -0.33290505
000370 2a 50 82 3e ae 72 f0 bd 7c bb 91 3c 79 d3 d5 be
       0.25451785 -0.117406234 0.017789595 -0.41762903
000380 ba a7 80 be 73 a3 d3 bb 6c ab bb 3d a2 82 3a bd
       -0.25127965 -0.0064586936 0.091635555 -0.045534737
000390 5c 1f 7e 3c d0 e8 72 bc 75 52 34 3d 33 cf 3f bd
       0.015510406 -0.014826015 0.04402395 -0.04682846
0003a0 2d eb a3 3b 1e 46 94 bb 87 c8 61 3d 07 8c c1 3e
       0.0050024004 -0.00452496 0.05512288 0.37802145
0003b0 48 ab 2b 3f c1 f5 90 3f f0 52 13 3d d1 2c c3 be
       0.6705823 1.1324998 0.035967767 -0.3812013
0003c0 8a ff 5e 3e 45 08 49 3d b5 87 20 be 28 2c 0c 3e
       0.21777168 0.049080152 -0.15676768 0.1368872
0003d0 2c 2c 2c be 6a cf dc 3d 25 91 6b 3d c7 6c b4 bd
       -0.16813725 0.107817486 0.057511467 -0.0880981
0003e0 6b 2d 1e bf c7 e6 33 be bb d4 29 bc 8a 9b e6 3b
       -0.6178805 -0.17568503 -0.01036566 0.0070375847
0003f0 bf fc b3 3b fc d5 43 bc ee fa c0 3a 05 79 8d bc
       0.005492776 -0.011952873 0.001472322 -0.01726962

hidden_weights.bias f4 [12]
000000 fd 3d 87 be ee 9d 93 3f b8 da 95 be 25 31 44 3f
       -0.2641448 1.1532571 -0.29268432 0.7663749
000010 c1 3b 8f bf 10 7b 7e bf a7 7c cb 3f 35 42 70 bf
       -1.119011 -0.9940653 1.5897416 -0.93851024
000020 f2 b8 8d bd 65 13 27 3f 6a 9b 86 bf 84 29 8c bb
       -0.06920041 0.6526397 -1.0516179 -0.00427741

output_weights.weight f4 [1, 37]
000000 a3 0f af be 98 a4 8d be c5 b3 22 bf 72 63 65 be
       -0.34191617 -0.27664638 -0.63555557 -0.22401217
000010 fa 37 3a bf f0 a2 9b be d5 e1 77 bf f3 42 a6 be
       -0.72741663 -0.3039775 -0.9682897 -0.32472953
000020 7f 82 16 3f 04 73 37 3f ba b9 91 3f 06 3e 04 3f
       0.5879287 0.71659875 1.1384804 0.5165714
000030 c3 ee 9f bc 06 68 d9 3c 61 22 10 bd 1d 7c 79 3d
       -0.01952303 0.02653886 -0.035189036 0.06090938
000040 3b cc 13 bd b2 76 cd 3c b2 1f 3d 3c 4b 92 83 bd
       -0.03608344 0.025081012 0.011543201 -0.064243875
000050 c0 3e fc 3d 0a 06 0b be 2f e0 01 be df 28 40 bd
       0.12316656 -0.13576522 -0.12683176 -0.046913978
000060 98 a8 10 be 65 2f 33 3e 2f 7a 69 3d 4d a3 f0 be
       -0.14126813 0.17498548 0.05700129 -0.4699959
000070 46 1e 66 3e 8a 76 81 3d 1d 58 6b be 13 a6 59 3e
       0.22472486 0.06321438 -0.22982831 0.21254759
000080 e7 71 06 be 08 2a 14 3d 03 6f d9 3c c4 1b e3 bc
       -0.13129388 0.036172897 0.026542192 -0.0277232
000090 16 b4 3a 3d
       0.0455819
