EQ/cascade_rnn_best.pth (torch, 5574 bytes, 5 tensors)

recurrent_weight f4 [12, 1]
000000 43 f8 93 3a 9d a0 41 bc c1 ef 94 bf d9 99 a6 3f
       0.0011289198 -0.011818078 -1.1635667 1.30157
000010 7a 66 1e 3f b4 19 b4 3b be 52 ec ba dd 25 ab 3b
       0.61875117 0.005496228 -0.001803003 0.0052230195
000020 42 9c c8 3f 34 ac 15 3c a9 1b 28 bf b4 b1 fa 39
       1.5672686 0.009135295 -0.65667206 0.00047816115

hidden_layer.weight f4 [12, 23]
000000 da 44 b6 bb b1 ce bd 3c 3e 81 64 3c 5c ff 80 3c
       -0.005562407 0.023169847 0.013946829 0.015746765
000010 61 09 c7 bc 3e 8e 2c bc f4 36 43 3b 10 5b ef bb
       -0.024296464 -0.01053196 0.0029787393 -0.0073045567
000020 51 d3 fa bb 7d 35 f2 3c 62 fd e8 3c 2e 4f 61 3e
       -0.0076545854 0.02956652 0.028441135 0.22002861
000030 34 f8 56 bc 9b b0 24 3d e5 d6 8e bb 7c 31 58 3c
       -0.0131207 0.040207487 -0.0043591135 0.013195392
000040 01 0e ab 3c 1c f5 b6 bb e5 7e 80 3c 6e 61 2c 3b
       0.020880701 -0.0055834185 0.015685508 0.002630319
000050 c8 96 4f 3b 63 f0 a6 bc fb 5f 86 3c d2 0a 19 bb
       0.0031675566 -0.020378297 0.016403189 -0.0023352397
000060 ea f5 96 3c ea 2b 93 bb 09 99 32 bb b8 f5 d7 ba
       0.018427808 -0.004491319 -0.002725186 -0.0016476428
000070 2a e1 85 bc d5 e9 42 bc 72 0d e3 bc b2 c9 05 bc
       -0.016342718 -0.01189657 -0.027716372 -0.008165764
000080 a4 00 4d 3b 37 bc 16 bb 71 66 69 be d8 19 9e 3c
       0.00312809 -0.0023000368 -0.22792985 0.019299433
000090 f6 6d 9f bb 3e 01 b7 3b 66 7a 5f 3c 7f 1c 85 3c
       -0.0048654033 0.005584865 0.013640022 0.01624894
0000a0 86 01 b8 bc 01 cc c6 bc 4d bd fe b9 1f da 4e bb
       -0.022461664 -0.024267199 -0.00048587695 -0.0031563116
0000b0 e6 77 ad bc 0a 6e 92 3b 05 aa d0 3c 8c 96 10 bc
       -0.021175336 0.004468684 0.025471697 -0.008824956
0000c0 bb 43 8c 3d 3a c6 b7 3c 45 1f 0f bd 08 c9 67 bc
       0.06848856 0.022433389 -0.03494193 -0.014147051
0000d0 d8 b0 99 bc b7 73 10 bc 02 9a fd bc 9f 0a 3b ba
       -0.018761083 -0.008816651 -0.030957226 -0.00071350666
0000e0 2b 28 00 3c df 1c 63 3e 54 49 ab 3c 5b 09 c5 bb
       0.007822077 0.22178982 0.020908989 -0.006013078
0000f0 1c 80 12 bc 26 66 a7 3c c8 0c 62 bd ac 00 91 3c
       -0.0089416765 0.02043445 -0.05518797 0.017700516
000100 ba 33 ae 3c aa 02 1c bd 41 a3 21 bd 3d bb 99 3c
       0.0212649 -0.03808848 -0.03946233 0.01876604
000110 8e 2d 4d 3b ae d8 1b bd 2a 8e 29 bc d2 80 cd bd
       0.003130767 -0.03804844 -0.010348836 -0.10034336
000120 cb 27 ca bc 05 a7 63 3d 47 7e d7 3c a6 81 d6 3c
       -0.024677178 0.055579204 0.02630533 0.026184868
000130 18 6f 00 3c 3b 42 56 3d 72 0a 59 bb ad 39 91 bc
       0.007838987 0.052309256 -0.0033117798 -0.017727697
000140 d8 ff a5 bd 8b bb 11 bd 3d 20 98 ba cd 79 6c 3c
       -0.08105439 -0.035579246 -0.0011606287 0.014433336
000150 45 dc 39 bd 12 22 95 3d 27 2e 98 bc db 1d cb bc
       -0.04537608 0.07281889 -0.018576695 -0.02479451
000160 19 ac 47 3d d5 fa 5e 3d d6 98 f4 bc 9a d5 6e 3b
       0.04874811 0.05443843 -0.029858034 0.0036443234
000170 7a 82 1d be cb 62 3c 3e 39 4b 0c bd 38 4a a9 3d
       -0.15381804 0.18397062 -0.034251425 0.08266109
000180 dd ea 87 3c dc 98 0e be 1b 63 67 bd 4f 8e 7a 3a
       0.016591484 -0.13925499 -0.056491 0.0009557949
000190 6c 57 28 bc 0c 38 30 be 77 d9 0b 3e 04 47 2f 3e
       -0.010274749 -0.1720888 0.13657175 0.17116934
0001a0 1d 41 82 3c 5b 4d 85 3e 45 d5 1f be 9b ce 84 3d
       0.015900189 0.2603558 -0.156087 0.06484719
0001b0 b9 86 49 ba ce cf a8 3d f5 05 f3 3d 4d 56 d8 3d
       -0.0007687617 0.082427606 0.118663706 0.105633356
0001c0 0f 7a db 3d 3d 49 07 bd 39 b4 f6 bd 26 e4 e3 3c
       0.1071664 -0.03302883 -0.120460935 0.02781875
0001d0 50 9f eb 3c 56 45 3f 3c c1 66 0f bc f5 60 86 3c
       0.02876249 0.011674246 -0.008752526 0.016403655
0001e0 c5 c9 8c ba aa 86 46 3c 8e da d4 bd 52 34 5c 3c
       -0.0010741284 0.012117067 -0.103932485 0.0134402085
0001f0 95 9d 71 bc 51 1a 04 3c e0 62 77 3e c7 6a 29 3c
       -0.014747043 0.008062915 0.24158812 0.010340399
000200 35 da 90 bc 78 52 c4 ba 71 14 3b bc ce 63 66 bc
       -0.017682174 -0.0014978191 -0.011418448 -0.014061881
000210 3f 13 30 bc 5f d2 be bb 1f d9 7d 3b 7d 61 33 bb
       -0.010746776 -0.005823418 0.003873415 -0.002737134
000220 1a 12 c1 ba 2e e9 38 3c f2 1f 94 3b fa ed 2f 3d
       -0.0014730126 0.011286063 0.0045204097 0.04295156
000230 df c3 a8 3d bf 2e 91 bb af 18 65 3c 74 2e b8 bb
       0.082404844 -0.0044306214 0.013982936 -0.005620772
000240 d2 39 78 3c 84 49 57 3c 99 e0 7c 3c bb 43 09 bb
       0.015150504 0.013140086 0.015434408 -0.0020944912
000250 55 8d 90 bb ab a0 65 be 60 ef 12 bc 41 2f 49 3c
       -0.0044113793 -0.22424571 -0.008968204 0.012279333
000260 52 6e dd ba 0b 79 56 bc d6 66 10 3a 66 32 8b bb
       -0.001689384 -0.013090382 0.0005508488 -0.0042479513
000270 04 73 c3 3b 94 37 20 3c 1a 1f 5e 3c bc 33 a4 3a
       0.0059646387 0.009778876 0.01355722 0.0012527625
000280 09 0d 16 3b 96 38 d8 bb 30 95 76 bd c4 c5 a4 3d
       0.0022895953 -0.0065985424 -0.06020087 0.08045533
000290 47 0e a6 3c ec b1 00 3b 55 8c 2c bc b2 0c 50 bc
       0.02027048 0.00196373 -0.010531505 -0.012698339
0002a0 0c f7 7c bb 41 3e 39 3a 82 a8 7f 39 5a 29 3a 3a
       -0.00385994 0.00070664665 0.00024381469 0.0007101499
0002b0 63 c5 6e 3e ef 64 a0 3c 18 2a 8f bc da b0 ec 39
       0.23317485 0.019579379 -0.017476127 0.00045145192
0002c0 02 ea 9f 3c ce 5f d1 3b 02 54 d8 bb 00 d7 a3 bc
       0.019520763 0.0063895946 -0.0066018114 -0.01999998
0002d0 30 19 81 bb 7d d0 96 bc 0e 7e e2 ba 96 17 61 3b
       -0.00393977 -0.018409962 -0.0017279999 0.0034346334
0002e0 39 cb 42 bc e1 c3 13 bd f5 e0 dc 3d 74 cb a3 bd
       -0.011889272 -0.036075477 0.10785095 -0.0799779
0002f0 20 7a 5a be 3a 46 0d be a1 91 8d be 4a b2 81 bd
       -0.2133565 -0.1379632 -0.2765017 -0.06332834
000300 9a d1 44 be 99 9e 52 3e d5 64 8a 3d 56 07 b3 bd
       -0.19220582 0.20568313 0.067575134 -0.087416336
000310 57 e0 2b 3e e7 e9 22 bd 56 59 aa bb cf 74 51 3e
       0.16784798 -0.039773848 -0.005198638 0.20454715
000320 d6 95 4b be 6a 48 f3 bd bb fe b0 bd 81 32 d6 bd
       -0.19881377 -0.11879046 -0.08642336 -0.104588516
000330 b5 22 e9 3b e8 80 e7 3d 19 4e 5d be e2 ff b5 ba
       0.007114733 0.11303884 -0.21611823 -0.0013885463
000340 aa 70 18 bc 00 96 af 3c c6 2c bf 3b 7d f0 5a bc
       -0.009304205 0.02143383 0.005834195 -0.013363001
000350 d4 61 16 3c 6b 4a 91 3c 86 1f d9 bc d7 ea c1 ba
       0.0091785975 0.01773568 -0.02650429 -0.0014794719
000360 97 61 b1 3b 87 23 9b 3b c6 5c 71 be c6 8b 09 bc
       0.005413245 0.00473446 -0.23570547 -0.008395141
000370 f0 cf 5c bc 79 60 9b bc 91 7f b1 ba 4e 78 38 bc
       -0.013477311 -0.0189669 -0.0013542046 -0.011259152
000380 f1 73 09 3c 4f 4a a3 3c 8d ac de 3b 00 e6 0a bc
       0.008389459 0.019932894 0.006795472 -0.008477688
000390 1b f9 7d 3b 7c 74 12 3c 82 be 7d 3c bb 52 e3 bd
       0.0038753215 0.008938905 0.015487315 -0.11099764
0003a0 f2 8c 80 3b 63 95 26 3e 0a 76 e1 3d a1 8c 07 3d
       0.003923052 0.16267924 0.11008842 0.0330931
0003b0 bd 68 cc 3d b1 53 7d 3c f1 d9 16 3d 6a a1 cf bd
       0.09980915 0.015461848 0.03682894 -0.10138209
0003c0 1c 97 87 3c fa 5a 37 be 36 80 0a be b8 c6 25 3d
       0.016551547 -0.17905799 -0.13525471 0.040472716
0003d0 58 ae 3e bd 68 23 e2 bd 4c a0 0d bd 08 f5 90 3d
       -0.046552986 -0.110419095 -0.0345767 0.07077986
0003e0 a8 9e 6e 3d df 03 57 bd ec bf d3 3b ef 93 9b bd
       0.058256775 -0.052493926 0.006462088 -0.075965755
0003f0 99 f3 95 3d 2e 6a 6e 3c c7 cb 10 bd 3a 5c 4f bc
       0.07321853 0.014551682 -0.035350587 -0.012656266

hidden_layer.bias f4 [12]
000000 ed 1e 5d bc 60 30 83 bc 24 ed 00 bd e3 f8 5f 3d
       -0.013496143 -0.016014278 -0.031476155 0.054680716
000010 32 02 65 bd 9d 7a 24 ba 95 af 8f 3d 47 0a 8a 3c
       -0.055910297 -0.00062743743 0.070159115 0.016850604
000020 ae e2 2a 3d 4f ee fa bd 79 92 68 3c bd 4d ba 3d
       0.041720085 -0.12252485 0.014195078 0.09096859

output_layer.weight f4 [1, 12]
000000 23 b4 dd 3e 9a 28 27 bf 3e 55 0b 3e ed 1d f3 3d
       0.43301496 -0.6529633 0.13606736 0.11870942
000010 3c 83 5d 3b cc b2 ba 3e 72 33 e7 be 2b 0c bb 3e
       0.0033800146 0.36464536 -0.45156437 0.3653272
000020 0e f5 b1 bb d9 9d 0a bf 66 78 05 bc 84 af 21 bf
       -0.005430824 -0.54147106 -0.008146381 -0.6315844

cascade_weight.weight f4 [1, 23]
000000 fd 1f 03 3b f0 53 02 39 16 9e b0 3a 2c f5 82 3b
       0.002000808 0.00012429035 0.0013474848 0.003996512
000010 0c ee a6 3a 18 6a ee 3a aa a9 46 3a 9d 22 8a bb
       0.0012735738 0.0018189577 0.00075783825 -0.004215552
000020 88 c3 47 b8 a3 3b 3c bb 81 08 39 bb 7a 26 a2 3e
       -4.76274e-05 -0.002872207 -0.0028233828 0.3166998
000030 f8 20 0e bb 8e b7 ed 3a 71 e8 fd ba 46 41 b0 bb
       -0.0021687131 0.0018136369 -0.0019371641 -0.005378875
000040 8b cc e8 b9 c1 74 c5 ba 94 cd aa 3a e4 35 9d 3a
       -0.00044402885 -0.0015064703 0.0013031238 0.001199421
000050 33 13 2d 3a 35 94 0d bb 72 85 9e 3b
       0.0006602287 -0.002160323 0.0048376853
