EQ_Reorganized/tcn_equalizer_pam4.pt (torch, 79845 bytes, 23 tensors)

stem.weight f4 [24, 1, 3]
000000 e5 fd 05 3f 1f ad a8 be 39 b7 af 3d cd d5 db 3e
       0.5234054 -0.3294458 0.08579869 0.42936555
000010 7f fa f7 3e d6 c1 80 3e ec 27 62 3e d4 69 d0 3e
       0.484333 0.25147885 0.22085541 0.4070574
000020 89 6a b7 be 3b 7b 0e bf 09 5f 68 be 75 d8 21 bd
       -0.35823467 -0.55656785 -0.22692503 -0.03951307
000030 c7 de 53 3d b0 10 81 bb 16 fe c9 be 9e 50 f1 bb
       0.05172613 -0.003938757 -0.39451665 -0.0073643466
000040 c1 df 06 3e 6c f9 14 3f 9d b2 8a 3e 40 dd 61 3e
       0.13171293 0.5819309 0.27089396 0.22057056
000050 36 c0 1e 3e 8f 36 bd 3e 41 83 be be b1 a0 4f bd
       0.1550301 0.36955687 -0.37209514 -0.050690357
000060 58 e5 f4 bd 40 d0 58 38 4c 99 67 3e c7 99 94 3d
       -0.11957806 5.169236e-05 0.22617072 0.07255893
000070 49 a1 c5 3e 63 59 8a be f3 4c 62 be a7 66 00 3e
       0.38599613 -0.27021322 -0.22099666 0.12539159
000080 c8 64 18 3f e9 80 ab 3e 2f 95 73 3e 96 fa d2 3e
       0.5952878 0.33496788 0.23787378 0.41206807
000090 5a 3b 23 be 30 64 5a 3e 6e a2 bf 3e 3f aa a7 3e
       -0.1594061 0.21327281 0.37428612 0.32747075
0000a0 de d7 97 3e 8f 17 78 3e d4 c4 70 be 8e a4 b5 be
       0.2965688 0.24227737 -0.23512584 -0.35477108
0000b0 0c 5c 85 3e 30 37 8f 3e 0c 20 94 3e a1 a6 7a 3e
       0.2604679 0.27971792 0.289307 0.24477626
0000c0 9a db cc 3e ad 8a ee 3e cf c6 90 be 7d 03 a1 3e
       0.40011293 0.46590176 -0.2827668 0.31447974
0000d0 4d df c3 be 01 32 eb 3e 58 79 0f 3e 18 80 c3 3e
       -0.38256302 0.45936587 0.14011133 0.38183665
0000e0 87 e3 d3 be be 17 ca bd 5e 72 18 bf cb 0e 04 bf
       -0.41384527 -0.0986781 -0.5954951 -0.5158507
0000f0 cd ad ed 3d 0f 65 b0 be 56 1f ed 3e fb e1 9d 3d
       0.116054155 -0.34452102 0.4631297 0.07709118
000100 d9 db d1 be f2 3a 52 3e 82 d7 98 3e 60 0e d9 3e
       -0.40988043 0.20530298 0.2985192 0.4239378
000110 17 b0 17 3d 4f 40 be 3e 07 ff ca be 3f 1c 12 be
       0.037033167 0.3715844 -0.39647695 -0.14268588

stem.bias f4 [24]
000000 ae b6 e6 be af c7 60 3c 2c 86 01 bf ff 2e 1a bc
       -0.4506125 0.013719483 -0.50595355 -0.009410619
000010 57 6f 71 3d ec 75 8e 3e ff 06 07 3f 58 57 04 be
       0.058944073 0.27824342 0.5274505 -0.12923944
000020 f8 6a 94 be ab 8a 2d be 65 8e b6 be a6 2a fd be
       -0.2898786 -0.16947429 -0.35655513 -0.494466
000030 1c d6 d7 be 40 ed 14 3f 98 50 82 3e 37 96 cf bc
       -0.4215554 0.58174515 0.25452113 -0.025340183
000040 e7 3b a5 bd 3e 44 09 bf 75 69 02 3f 5c 3e 9e 3c
       -0.08068066 -0.53619754 0.50942165 0.019316845
000050 03 09 7a be 92 70 ae 3b b8 a6 e8 3e 90 57 ce 3d
       -0.244175 0.005323478 0.45439696 0.10075295

blocks.0.net.0.weight f4 [24, 24, 3]
000000 5c 70 01 be bc 59 cd 3d 85 ef 8e 3d 5e 3a 4a 3c
       -0.12640518 0.10026881 0.069792785 0.012343017
000010 71 2d 61 bd a2 d1 16 bd bb c8 ee 3d c1 41 9a 3d
       -0.054974977 -0.036821015 0.1165938 0.07532073
000020 f0 6e 92 3d 4e 87 39 3d 68 44 63 3d 66 33 a3 bc
       0.07150066 0.045295052 0.05548516 -0.01992197
000030 12 68 8b ba 45 62 a9 3b d7 6c 1c bd 63 8a c9 3c
       -0.0010635874 0.0051691853 -0.038189735 0.02460212
000040 eb 2e 97 bd 3d 87 51 3d 2b da af bd 50 f2 9a 3d
       -0.07381996 0.051154364 -0.08586534 0.07565749
000050 3e e8 de bc 7f d4 a5 bd dd 1c 06 bd f9 a9 27 3d
       -0.027210351 -0.08097171 -0.03274237 0.040933583
000060 59 9a b1 bd f3 79 3e 3c e0 39 20 3d 6b 90 bb 3d
       -0.086720176 0.011625755 0.039117694 0.09158405
000070 15 a3 80 3d 18 10 c7 3d 43 eb e7 3d ba 4f 08 be
       0.062811054 0.097198665 0.113241695 -0.13311663
000080 18 c7 d8 3b 4e 58 81 bd 6a fe 92 bd 6a 32 e5 bd
       0.0066155307 -0.06315671 -0.07177432 -0.11191256
000090 9b da 73 3d a1 07 c1 bd 83 3f ba 3d 37 4b e8 3d
       0.05953465 -0.09425283 0.09094145 0.11342471
0000a0 29 6d 65 bd 04 f8 9a bd 07 ce 62 3d 71 ee d8 bd
       -0.056012306 -0.075668365 0.055372264 -0.10592354
0000b0 ce 78 b1 3d 1d 88 14 3d 08 57 97 bd cf 10 8e 3d
       0.0866562 0.03626262 -0.07389647 0.069368
0000c0 58 a5 d0 3d 96 25 dd 3d 58 f1 e0 bd 1a c9 db bd
       0.10187787 0.107981846 -0.10983533 -0.107317165
0000d0 12 f4 ff 3d c7 40 b7 3d 76 4c c6 3d b5 30 88 bd
       0.124977246 0.08947902 0.096825525 -0.06649915
0000e0 0f d4 aa bc f8 3f 6e bd c5 7e 76 bc 21 5c 77 3d
       -0.02085307 -0.058166474 -0.015044873 0.060390595
0000f0 e1 89 0a be 8b a8 a3 bd 4d 25 4d bd f2 ea d9 bd
       -0.13529159 -0.079911314 -0.0500844 -0.106405154
000100 1f 09 b2 ba e2 cf b4 3c 55 d6 8b bd b7 d8 9e 3d
       -0.001358304 0.022071782 -0.0682799 0.07756179
000110 07 01 f6 3b a0 b7 38 3b b5 8c 02 bd 65 22 ad 3d
       0.0075074467 0.002818562 -0.03187247 0.08453826
000120 6f b7 d8 bc 2e 3e 2a 3d 10 41 d0 3c a7 35 3a 3c
       -0.026454655 0.041563205 0.02542165 0.011365331
000130 7b 00 67 bd 3c ba a4 bd d4 70 bc 3b cb de c3 3d
       -0.056396943 -0.08043334 0.005750755 0.09563979
000140 8d 3e 0b bd 70 61 94 bd a0 c0 a9 3d 3a 7f c5 3d
       -0.0339952 -0.07245147 0.082886934 0.09643407
000150 40 33 a4 3b c3 8a e2 bd 3e 20 b6 bd d0 4c 94 bd
       0.0050109923 -0.11061623 -0.088928685 -0.07241213
000160 44 63 a3 3d d8 d6 ec 3c 3b ba 8e 3d b6 ca b7 bd
       0.07977918 0.02891104 0.069691144 -0.08974211
000170 34 e5 05 bc 6b 80 7c bc 6c 3e 8c 3d 14 45 b9 bc
       -0.008172322 -0.015411477 0.068478435 -0.022615947
000180 19 4f 46 3d 06 ba 3a 3d 59 98 bb 3d 2a 7a 3c 3d
       0.048415277 0.045587562 0.091599174 0.046014942
000190 fc fe e0 3d 58 af f4 3d 3f d6 16 3d 09 ff 7b 3d
       0.109861344 0.11947507 0.036825415 0.061522517
0001a0 59 34 44 3c dd 71 32 bd 9c 07 e8 3d 1b 91 e5 ba
       0.011975371 -0.04356562 0.113295764 -0.0017514558
0001b0 1b f3 23 3d bd 11 57 3d 53 04 15 3d cd db 0a bd
       0.040026765 0.05250715 0.036381077 -0.033901025
0001c0 ae 36 82 bd 09 8b d2 3c e6 24 9d 3d 83 c9 dc bd
       -0.063580856 0.025701063 0.076730534 -0.10780623
0001d0 60 c3 73 3c 9f 26 27 3c 15 2b 96 bd bf 87 ba bb
       0.014878124 0.010202079 -0.07332436 -0.0056924517
0001e0 58 e5 d1 3d 11 97 52 bc 87 63 fb 3d 76 25 8c 3d
       0.10248822 -0.0128534 0.12274843 0.068430826
0001f0 c9 cc 8b 3d 10 a8 f6 3d 94 eb eb bd d8 fb 9a 3d
       0.06826169 0.12043774 -0.11519542 0.07567567
000200 29 f2 82 3d 6b 75 d2 3d de 49 a1 3d 5f a4 d3 3d
       0.06393845 0.10276302 0.07875417 0.10334086
000210 c1 39 9c 3d d6 a6 a3 3d e6 eb 83 3d 4d e9 d9 bd
       0.07628203 0.07990806 0.064414784 -0.10640202
000220 df 3b cf 3c f4 e5 c9 bb 3c 68 b9 3d 60 79 a6 bd
       0.025297103 -0.0061614458 0.09053084 -0.08128619
000230 21 97 30 3d ab 05 e2 bd 41 37 d2 bd e2 5d d5 3d
       0.043112878 -0.11036237 -0.10264445 0.10418297
000240 0f ff 4e bd 55 9e d7 bc 5c 49 ad 3c 5c 6c a5 3d
       -0.05053621 -0.026320616 0.021153145 0.080773085
000250 40 20 32 bd 60 b9 82 3d 58 82 90 3d e3 67 5d 3c
       -0.043487787 0.06383014 0.07056111 0.013513538
000260 6c d4 cd 3d 26 19 ca bc 05 3b a2 bd 7b e3 fa 3c
       0.10050282 -0.024670195 -0.07921413 0.03062605
000270 2d 58 1b bd 51 f3 fd bd 57 71 ba bb be 7b 92 bd
       -0.037925888 -0.123999245 -0.0056897807 -0.07152508
000280 82 56 bd 3d 5f 50 c4 bd 7d 5d 5c bd bd ac 90 3c
       0.09245016 -0.09585642 -0.053800095 0.017660493
000290 8b bc 9d bd e2 2b dd bd fb 30 39 bc 98 ed 0c bd
       -0.07701977 -0.107993856 -0.011303182 -0.034406275
0002a0 99 ab f0 bd 86 ab b3 3d 3d c0 75 3d 0a 36 04 3e
       -0.1175148 0.0877295 0.059997786 0.1291124
0002b0 82 02 48 3b c8 f3 0d 3e 57 0c 33 bc 79 5e 78 bc
       0.0030519073 0.13862526 -0.010928235 -0.015159243
0002c0 08 17 ca 3d 22 0d f6 3b 60 41 45 bd f0 ea bf 3d
       0.09867674 0.00750889 -0.04815805 0.09370983
0002d0 c9 81 5a 3c 2d 5f 0b 3e 3f 12 37 bd 85 d4 92 3c
       0.013336607 0.13610525 -0.044695135 0.017923603
0002e0 93 04 93 3d 03 35 5e 3c cb 47 03 be ca c9 ed 3c
       0.07178607 0.013562444 -0.12820356 0.029026885
0002f0 4c 8b f5 bc b2 18 8a bd 5d 39 2e bd 77 f1 0c 3b
       -0.029973648 -0.067429915 -0.042535175 0.002150623
000300 a4 25 63 3d 24 98 73 3b 50 f6 ca 3c 94 5d bc 3d
       0.05545582 0.003716954 0.024775654 0.09197536
000310 ae dd 24 3c 05 9f ff bb 3e 7b fc bc 27 1c 85 3d
       0.010062618 -0.007800939 -0.030820485 0.0649951
000320 d7 a4 2d 3d 8b 47 f2 bd f0 26 66 38 43 c4 c3 bd
       0.04239353 -0.11830052 5.4872537e-05 -0.09558918
000330 63 33 9e bd cc 1f 2d 3e e1 74 96 bd 19 aa 33 3d
       -0.07724645 0.16906661 -0.07346512 0.04386339
000340 91 06 4a bd 3d fa e1 bd 5c b7 70 3d f1 fa d5 bd
       -0.04932267 -0.11034057 0.058768615 -0.10448254
000350 d3 67 e1 bd d9 2a 8a 3b 75 11 18 3c ac 99 4f 3d
       -0.11006131 0.0042165336 0.009281506 0.050683662
000360 4e 6a 7d bd 9f e6 ab 3d af 92 c9 bc f3 00 08 be
       -0.06186896 0.08393597 -0.024606077 -0.13281612
000370 ca 77 7c bb d2 51 94 3d 2e 84 64 3d 78 9b d3 3d
       -0.0038523548 0.072421685 0.05579012 0.10332388
000380 e1 ef 81 bd d3 51 3f bd 18 07 2e bb fc 34 3f bd
       -0.063445814 -0.046708893 -0.0026554521 -0.04668139
000390 ad f5 5e 3b 52 2d da bd 0a 52 06 be 79 cf be bc
       0.0034020946 -0.106531754 -0.13117233 -0.02329229
0003a0 0e 4d cc 3d 45 03 3c 3d d9 4b 2d 3d 49 b3 a2 3d
       0.099756345 0.045901556 0.042308662 0.07944352
0003b0 fb cb 0c bd 13 3d a6 3c 8a e6 b4 3d 5e e7 e9 3b
       -0.03437422 0.020292794 0.08833034 0.007138177
0003c0 c3 04 b7 bd 61 e7 ea 3d 6c 0e af 3d 93 b5 a8 bd
       -0.08936455 0.11469913 0.08547673 -0.082377575
0003d0 9d c6 a7 bd e3 4e 95 3c 61 a5 1e 3d e5 1c 04 bd
       -0.08192179 0.018226093 0.038731936 -0.03225412
0003e0 80 c5 18 3e 13 16 4e bd 28 7b c7 bd c5 18 b8 bd
       0.1491909 -0.05031402 -0.09740287 -0.089890994
0003f0 ff 6f c6 3b fe d8 6d 3d 49 66 70 bc fc 54 ce 3c
       0.0060558314 0.058068268 -0.014672824 0.025187008

blocks.0.net.0.bias f4 [24]
000000 40 0d 4b 3d 3f 92 a5 bd 10 e2 c4 3a 0d 5a d1 bd
       0.049573183 -0.08084535 0.0015020985 -0.10222254
000010 d3 e3 25 bc 43 97 25 3d 1a f8 53 bd 11 6f 27 3d
       -0.010125118 0.040427458 -0.05175028 0.040877406
000020 96 be 8e 3d 58 72 0b 3e fa 55 75 3c 5c 4d 9b bc
       0.06969945 0.13617837 0.014974112 -0.018957786
000030 bd fc 73 bd 77 7b 3d bd a3 c9 11 3e 6f c1 45 bd
       -0.059567202 -0.046260323 0.14237075 -0.048280176
000040 a5 a3 de bc 0c 05 e3 3d ca f2 d5 3b f8 80 a5 3d
       -0.027177641 0.11084947 0.006529187 0.080812395
000050 d7 2b c6 3b 3d b7 de 3d c8 54 b0 3d c6 a6 73 bd
       0.0060477066 0.10874794 0.08609921 -0.05948522

blocks.0.net.3.weight f4 [24, 24, 3]
000000 4f d0 42 bd 6a 65 d9 3d f6 9a 87 3d 44 1c 41 3d
       -0.04756194 0.10615046 0.06621353 0.047146097
000010 13 b4 aa bd 6b 7c c3 3c d3 83 f8 3b c9 68 b9 3d
       -0.08335128 0.023863038 0.007584074 0.09053189
000020 33 94 58 3c 3b cb 75 bd aa 00 b2 bb 52 2c ef 3b
       0.013218927 -0.06000827 -0.005432208 0.0072989846
000030 10 87 e1 3c e6 13 ea 3c d8 45 56 bd 76 fd dc 38
       0.027530223 0.028573941 -0.052312702 0.00010537628
000040 74 13 1e 3e d1 b8 81 3d b5 00 bf bb 1e e7 d5 bd
       0.15437108 0.06334079 -0.0058289417 -0.10444473
000050 52 40 d2 bc b4 71 e8 3d e0 4d cd 3d bb af da 3d
       -0.025665436 0.11349812 0.10024619 0.10678049
000060 48 07 a4 3d 79 ed 17 3e d0 34 01 3e dc 71 82 bd
       0.08009201 0.14836682 0.12617803 -0.06369373
000070 24 0e 02 3e 54 2a 9e 3d eb 36 80 3c 57 4c 6f bd
       0.12700707 0.07722917 0.015651187 -0.058422413
000080 71 5e 94 3d a2 69 33 bd b3 2a f9 3c 01 2e 73 bd
       0.07244576 -0.04380191 0.030415868 -0.059370045
000090 02 54 a4 bd 64 1f 6b ba ef f2 c1 3d 28 a1 ef bd
       -0.08023836 -0.0008969216 0.09470164 -0.1170066
0000a0 a9 22 fa bc 26 be b7 bd 63 4c 07 bd 00 43 8e 3d
       -0.030534105 -0.08971815 -0.033031832 0.06946373
0000b0 c2 5d 7e bc 3c 1f 2a 3e 90 70 b6 bc da 21 ad bb
       -0.015525283 0.16613477 -0.02227047 -0.0052835764
0000c0 90 90 f3 3b 36 0d 13 3e 14 df 44 bd 54 53 19 bd
       0.0074330047 0.14360508 -0.048064306 -0.037432984
0000d0 ed d3 65 bd 18 1f 06 3d 50 93 63 3d 9f ae 06 3e
       -0.05611031 0.032744497 0.05556041 0.1315255
0000e0 92 c6 a8 bb 83 34 80 bc da cc df 3c 6f ba 1b bc
       -0.0051506246 -0.01565004 0.02731936 -0.009504898
0000f0 69 41 c2 bd d6 0c d0 3d e3 a6 ce bd 43 63 19 bd
       -0.09485132 0.10158698 -0.10090425 -0.03744818
000100 b2 98 7c 3d 2e 28 31 bd a2 f3 25 bd 28 05 06 3c
       0.06166906 -0.04325121 -0.04051555 0.00817994
000110 7d 5d b1 bc b1 36 10 3d e6 7c c3 3d 92 b5 44 3d
       -0.021651024 0.035208408 0.09545307 0.04802472
000120 9f 31 b8 bb 1c 44 90 bd 69 3e 6b bd 71 ba d9 3a
       -0.0056211497 -0.07044241 -0.057432566 0.001661135
000130 93 4d 8e 3a a6 4d e4 bb 99 a5 02 3c 08 75 51 bb
       0.0010856859 -0.006967264 0.007974052 -0.0031960625
000140 0d e2 30 bd 78 69 0d bd b7 4f 4c bc fd ae 88 bc
       -0.04318433 -0.03452441 -0.012470177 -0.016685003
000150 e8 79 2e 3d 18 c9 4c bd 9f af bb 3c ba c0 8c bd
       0.042596728 -0.049996465 0.022910891 -0.06872697
000160 d2 b2 b3 3c 30 c1 23 bd f9 b6 3a bd bf 55 4a bd
       0.021935854 -0.03997916 -0.045584653 -0.04939818
000170 d4 04 97 3d 0e 1d f4 bd 5e ff a5 bd 56 6b 94 bc
       0.07373968 -0.11919604 -0.08105348 -0.018117588
000180 0d 08 2a bc 3e 50 e4 3c 4a 10 99 3c 8b a3 59 bd
       -0.010377896 0.027870294 0.018684525 -0.053134482
000190 12 4a 58 bd be 36 56 3d 98 61 e0 bc e8 e9 e4 bb
       -0.052805014 0.0522983 -0.027390286 -0.0069858916
0001a0 5e b2 a1 bd 68 e9 6c 3c cc 60 47 bd f5 ce 85 3a
       -0.07895349 0.014459945 -0.048676297 0.0010208773
0001b0 25 a0 b2 bb 79 05 9e bd aa 66 1a bd 26 59 e8 37
       -0.0054512196 -0.077158876 -0.037695564 2.7698068e-05
0001c0 18 12 f9 bc b2 13 ac 3d 2f a7 58 bd 95 e7 eb bb
       -0.030404136 0.08402194 -0.052893814 -0.0071992376
0001d0 fb 96 aa bc 51 60 a5 3c f1 c0 61 bd 20 8c c5 bc
       -0.020823946 0.020187529 -0.055115644 -0.024114668
0001e0 c9 b9 b1 bd d0 85 a0 3b e2 4e 9a bd 38 03 7d bd
       -0.08678014 0.004898764 -0.07534577 -0.061770648
0001f0 90 d9 bf 3d cd 23 81 bc 06 1b 00 bb 35 f8 96 3d
       0.09367669 -0.015764141 -0.0019547357 0.073715605
000200 e5 2a 81 3d 91 6b 9c bd 5e 03 0f bd c3 37 0f bd
       0.063070096 -0.07637704 -0.03491532 -0.034965288
000210 1f a3 50 bd cd 98 34 bc 3b eb c9 3d ad c9 ef bc
       -0.050936814 -0.011022759 0.0985932 -0.029270971
000220 a3 ba 58 3d 07 73 4b 3d dc b6 f4 3a 99 e1 bf 3d
       0.052912366 0.049670245 0.0018670219 0.09369201
000230 48 c8 35 bd 7e b0 6b ba 34 a6 34 bd 04 5d ff bc
       -0.044380456 -0.0008990838 -0.044103816 -0.031172283
000240 f9 0e ab bc b9 2b 90 3d 5e c7 e8 3d f9 a0 ad bd
       -0.020881163 0.070395894 0.11366151 -0.08477969
000250 90 2d 5a 3d d1 7e 3b 3d 48 76 c8 bc fc 81 80 3d
       0.053266108 0.04577524 -0.024470463 0.062747926
000260 42 48 0d 3e 2c 23 15 3e 04 2c a4 3d b3 9a d2 3c
       0.13797095 0.14564198 0.08016208 0.025708532
000270 59 9f c3 bd 15 73 ba 3d cd 1c 36 3d b1 cb 71 3d
       -0.095518775 0.091039814 0.04446106 0.059032146
000280 c9 b8 68 bd 56 87 39 3d 28 b4 71 3d df 37 ff 3d
       -0.05681685 0.045295082 0.0590097 0.124618284
000290 b5 0f dd 3d 12 bc de bc 8d 3e 0d ba df 85 84 bc
       0.107940115 -0.027189288 -0.0005388044 -0.016177116
0002a0 10 3e 2d bd 21 6d 33 3d 2a 5d 0f 3e 7d 49 82 bd
       -0.042295516 0.043805245 0.14000383 -0.06361673
0002b0 25 f6 7c 3d fe 86 41 3c 31 f8 d6 ba 09 ea 13 3e
       0.06175818 0.01181197 -0.0016400871 0.14444746
0002c0 06 7a 16 3e a0 7a 85 bd 6d 5b 71 bc 83 a6 3c bd
       0.14694986 -0.065175295 -0.01473127 -0.046057235
0002d0 31 dc 0a be 73 8f cf 3d 25 4e 02 3e 4a f8 97 3d
       -0.13560559 0.10134783 0.12725122 0.07420404
0002e0 f1 cc 6f 3d f6 68 6d 3d ab c5 14 be db 53 66 bd
       0.058545057 0.057961427 -0.1452853 -0.056232315
0002f0 a1 5e 97 bb fa a2 6f bd b8 2b c9 3d 1d 45 b7 3d
       -0.004619435 -0.058505036 0.09822792 0.08948729
000300 80 fc fd bd 55 39 cb 3c bc 25 fa 3c 69 b1 0e be
       -0.12401676 0.024807611 0.030535571 -0.13934864
000310 ba 2c f3 bc 1f c8 85 bc b6 40 44 3d 4c 88 5c 3d
       -0.029684413 -0.016330777 0.047913276 0.05384092
000320 94 8b 3f bd 19 5d eb 3d 82 18 9a bd 1f 47 06 bb
       -0.04676397 0.11492366 -0.07524206 -0.0020489169
000330 7e ae 76 3d 3b 04 81 3d 4b ef 0b 3d 7c a2 a2 ba
       0.060225002 0.06299635 0.034163754 -0.0012408043
000340 a6 cd 1c 3e 8e 35 58 bd c2 a8 6a 3d 0f 77 7a bc
       0.15312824 -0.05278545 0.057289846 -0.015287175
000350 55 5c e7 bc df 74 d5 3d 24 04 02 bd ac fc 04 bd
       -0.02824227 0.10422682 -0.03174223 -0.03246753
000360 53 02 81 bd 53 8b d7 3c 2b 4a d8 3b fb da d4 3d
       -0.062992714 0.026311552 0.0066006384 0.1039333
000370 21 ce 88 3d ba f6 9a bd 96 ad b2 3c 34 d3 3f bd
       0.06679941 -0.075665906 0.021811288 -0.04683228
000380 af 1e d6 bd 64 cb a6 3d 35 0f 05 3e cf d7 6e 3d
       -0.10455071 0.081442624 0.12994082 0.05831128
000390 72 6a 26 be cc f9 87 3d a5 e6 a6 bb ae be ba 3d
       -0.16251543 0.06639442 -0.005093413 0.091184005
0003a0 5c 92 94 3d 37 da a2 3d 09 55 9e 3d 00 2b 2c bd
       0.07254478 0.079517774 0.07731063 -0.042033195
0003b0 6d c4 95 bb 5c f8 07 3e 82 23 fa 3d 5f 0e 6d 3a
       -0.004570535 0.13278335 0.12213804 0.0009042974
0003c0 1c 15 21 bd 26 12 e7 3d 9f 53 8c bd c4 0c 10 be
       -0.039326772 0.112827584 -0.06851887 -0.1406737
0003d0 f8 0d 9b 3d 40 cd 97 3d b9 16 bd bb ab be 25 bd
       0.07571024 0.07412195 -0.005770531 -0.04046504
0003e0 cf 65 b4 3d 08 65 de bc 80 97 4d 3d c5 b5 d2 3d
       0.08808481 -0.027147785 0.05019331 0.10288576
0003f0 13 9b f8 3b db 1f c6 3d 0e 28 a5 3d a6 dd 7c 3c
       0.0075868457 0.09674045 0.080642805 0.0154337045

blocks.0.net.3.bias f4 [24]
000000 b2 66 2b bd 32 cd e3 bc ef e0 7d 3d cd c1 af bc
       -0.041845985 -0.027807806 0.06198209 -0.021454716
000010 8b 47 56 3d e4 c9 78 3d 28 45 5b bd 79 09 de bd
       0.052314322 0.060739413 -0.05353275 -0.108416505
000020 b1 95 58 bd 73 c2 1d 3e ff eb c4 bd 1d f0 21 3c
       -0.05287713 0.15406208 -0.09615325 0.009883908
000030 66 cb ac bd 58 0b b5 3d be 26 ea bd f7 25 5e 3c
       -0.08437233 0.08840054 -0.11433171 0.013558856
000040 be b1 da 3d e6 0d 43 bd d6 0e 0e bd b0 03 d9 bd
       0.10678433 -0.047620676 -0.034682117 -0.105964065
000050 3b 16 53 bc 05 a2 91 3d 6f 73 cc 3d 87 4b 23 3d
       -0.012883718 0.07110981 0.09982955 0.03986695

blocks.1.net.0.weight f4 [24, 24, 3]
000000 53 9b 8b bd c2 e3 dd bd 8d 79 cc bd f4 92 93 bd
       -0.06816735 -0.10834457 -0.099841215 -0.072057635
000010 6c 01 02 3d ef f2 04 3e 09 ac fd bd 3e b4 c2 3c
       0.031739637 0.12983297 -0.12386329 0.023767587
000020 81 69 c4 3a 43 9c 47 3b 91 26 07 3d 8a c4 b0 bc
       0.0014985056 0.003045813 0.032995764 -0.021578092
000030 4a 94 ad bd 7f d8 78 bd 20 64 bc bc 00 9e 9d bd
       -0.084755495 -0.06075334 -0.022996962 -0.07696152
000040 f2 ec 45 bc 90 01 a6 bd 3a 29 17 3d ea b0 4e bd
       -0.012080418 -0.08105767 0.03690455 -0.050461687
000050 0b 47 cd 3c 25 5f 13 3e 10 84 9e bd 2c d9 54 3d
       0.02505829 0.14391764 -0.07740033 0.051964924
000060 c3 d4 27 bd 18 b2 cc 3d 1e 36 19 3d 13 9a 24 bd
       -0.04097439 0.09994906 0.037405126 -0.040186
000070 2a f6 8e bc ed f5 ad bd 08 a2 e7 bc 11 b3 2a bd
       -0.017451365 -0.08494172 -0.028275505 -0.041674677
000080 81 8e 21 bc 3d 34 5c 3c 4b 0e a1 b9 b6 10 b5 bd
       -0.009860636 0.013440189 -0.00030718962 -0.08841078
000090 4f 09 30 3d c8 55 6e bd f4 f7 b6 3d 80 c2 f4 bc
       0.042977627 -0.058187276 0.08934012 -0.029877901
0000a0 bf 29 0c 3e 62 0c 5d 3d 8e 6b 54 3a ee e8 f4 3d
       0.136878 0.053966887 0.0008103185 0.1195849
0000b0 6d db 2c bd e3 a6 ac 3d b8 5d 9f 3d 46 70 91 3d
       -0.04220145 0.084302686 0.07781547 0.071014926
0000c0 b9 91 16 3d 14 2f 95 3d a9 ca 8b 3d ac 85 65 bd
       0.036760066 0.0728437 0.06825764 -0.056035683
0000d0 30 19 85 3d ae a3 12 3d 2b 72 c6 bd d9 f7 c0 3d
       0.06498945 0.03580063 -0.096897446 0.09422273
0000e0 a2 6d f1 3d 9b f9 15 3e ce 79 73 3d 38 20 14 bd
       0.11788489 0.14645998 0.059442334 -0.03616354
0000f0 a5 98 ac bd 65 23 8b 3d f2 e9 ea bd ca 2e ab bc
       -0.08427552 0.0679386 -0.11470403 -0.020896334
000100 4f 41 8c 3d 79 91 f1 bd f8 84 49 3c a7 8a 0e bb
       0.06848394 -0.11795325 0.012299769 -0.0021750124
000110 91 3b 84 bc ae 53 c3 3d 1e 03 86 3c b1 38 e6 bd
       -0.016141685 0.09537445 0.016358908 -0.11241282
000120 ef c3 16 bd bc ea 65 bc fe c2 58 3d 08 76 b5 3d
       -0.03680795 -0.014033016 0.052920334 0.08860403
000130 fb 5a 7b 3d f5 10 ca 3d 01 c5 07 3d bd ff 00 be
       0.061366063 0.098665155 0.033146862 -0.12597556
000140 bc 23 39 bc e3 30 bf bc 11 d3 6f bd 98 a6 24 3d
       -0.011300024 -0.02333874 -0.058550898 0.04019794
000150 24 e5 15 be a9 d5 d7 3d 7c da 47 bd ec 32 8e bd
       -0.14638191 0.10538799 -0.048792347 -0.06943306
000160 cf 3a a2 bd 05 48 83 bc fd a1 ab bc 27 60 0c be
       -0.07921373 -0.016025553 -0.020951265 -0.13708554
000170 9b 23 0b 3e 0d ef 83 bd 92 e7 90 3d 22 e8 20 be
       0.13587801 -0.0644208 0.070754185 -0.15713552
000180 84 53 da 3d 90 f8 c5 3c 6e 26 c1 3d fb 1b ad 3d
       0.106604606 0.024166375 0.09431158 0.084526025
000190 b2 21 8e 3c 78 e1 9f 3d 9e a8 2f bc cd 78 a9 bd
       0.017350052 0.078066766 -0.010721354 -0.08274994
0001a0 82 48 85 3d a9 c9 52 3d 4e 4a ad 3d 2e fc 84 bc
       0.065079704 0.05146185 0.08461438 -0.01623353
0001b0 b4 18 aa 3c 7f a1 08 be b2 f4 35 3d e5 ab 6f 3d
       0.020763732 -0.13342856 0.044422813 0.05851354
0001c0 94 05 7c bd 7c ae 49 bd f4 96 fe 3d 03 3d 82 3d
       -0.061528757 -0.049238667 0.12431136 0.06359293
0001d0 72 ce 18 bd 19 a6 a0 bd f4 aa e5 bd a5 02 71 bd
       -0.037306257 -0.078441806 -0.11214247 -0.058840413
0001e0 1a 3b cf 3c 7a d5 49 3d ca bf 62 bd 38 34 63 3d
       0.025296737 0.049275853 -0.055358686 0.05546972
0001f0 56 79 94 3d 07 ad 0d 3d 78 43 13 bd 65 62 e6 3c
       0.072497055 0.03458884 -0.035953015 0.02812309
000200 08 24 f7 3d 29 96 4b bd 42 83 24 3e fc 53 ae bd
       0.12067419 -0.04970375 0.16065696 -0.085121125
000210 7c 03 e8 3d db ea f5 3d ca fe 3f 3d 29 e5 60 bd
       0.113287896 0.12007686 0.046873845 -0.054906044
000220 0c 2e e0 3c 1b e5 72 3b 5f 51 25 bd 94 2b 1b bc
       0.027365707 0.0037062827 -0.040360805 -0.009470839
000230 1f 7c d0 3d c0 55 c4 bb 84 8f 24 bd d6 b4 1a be
       0.10179924 -0.0059916675 -0.04017593 -0.15108046
000240 9b 1a 04 3e 2e f4 1e be 55 6d 61 bd 7b 35 83 3b
       0.12900774 -0.15522835 -0.055035908 0.004004178
000250 86 1f 13 3d 39 c5 b3 bd 87 30 f8 bd f4 f7 b8 b9
       0.035918735 -0.087778516 -0.12118631 -0.00035279954
000260 8b a4 20 be d0 6d 09 3e 7d bf 86 bd 1f a5 93 3b
       -0.15687768 0.13420796 -0.06579492 0.004505768
000270 55 e5 d2 bc 49 e5 52 3d 42 2b 48 bd a0 e4 88 3c
       -0.02574412 0.051488195 -0.04886938 0.01671058
000280 07 53 dd bc f7 9c f2 3c 44 fd 70 bd d4 6c f8 3d
       -0.02701713 0.029615862 -0.058835283 0.12130132
000290 c9 7b 03 bd 0d ba a4 3d 0a 87 23 be 4a 48 f2 3c
       -0.032100473 0.08043299 -0.15969482 0.029575486
0002a0 e3 21 f1 bd 9f 3e 39 3d 28 d0 ef 3a 66 93 a0 bd
       -0.117740415 0.045225736 0.0018296288 -0.07840614
0002b0 62 a9 02 3e 41 63 4f bc 64 7d a4 3c 6d d6 46 3c
       0.12759927 -0.012657941 0.020079322 0.012136084
0002c0 3d e6 db bd 4a 67 a2 bd b8 db 07 be d0 0a 71 3d
       -0.10737274 -0.07929857 -0.1326741 0.058848202
0002d0 2a 8a 27 bd 40 b4 40 3d 38 2d e7 bc dd 46 1a 3c
       -0.040903248 0.0470469 -0.028219804 0.009416309
0002e0 9f 47 7e 3d c9 a9 bf 3d 33 41 43 bd 62 48 69 bd
       0.062080022 0.09358556 -0.0476696 -0.056953795
0002f0 49 56 4d bd 3a 70 34 bd 66 5f 60 3d ef 36 4d 3d
       -0.050131116 -0.04405234 0.05477848 0.050101217
000300 83 7e 5f 3d 6b 3c 81 3d 4e 93 20 3d a8 a6 a0 bb
       0.05456401 0.06310352 0.03920298 -0.0049026795
000310 ba a1 14 3d b1 a6 9a 3c 54 e4 f8 3d 62 2a 7d 3c
       0.036287047 0.018878313 0.12152925 0.015451999
000320 74 fc f9 3c b0 fd cf 3d d3 9f 9e 3c ee c3 cd bd
       0.030515887 0.10155809 0.01936332 -0.10047136
000330 ed e0 cf bc 0e a5 31 bd 1c 13 86 3d d2 c4 d1 3d
       -0.025375808 -0.0433703 0.065466136 0.102426186
000340 93 3b 56 bd 31 81 60 3c 0d bf 3b 3d 5a 2d 08 3e
       -0.05230291 0.013702677 0.045836497 0.1329855
000350 94 a8 e7 3d ec 14 32 bd d3 c0 91 bd 14 68 ce bc
       0.113114506 -0.043476984 -0.071168564 -0.025196113
000360 b4 95 7b bd 75 01 23 39 d6 32 1e bd 84 32 12 3d
       -0.061422065 0.00015545434 -0.0386227 0.035692707
000370 b1 e9 96 bd dd 93 18 bc a9 9c e1 3b e1 2e ec 3d
       -0.07368792 -0.009312597 0.0068851304 0.11532379
000380 98 f6 48 3d 2f ea d0 3d 59 89 19 be 1f 76 85 bd
       0.049063295 0.10200917 -0.149938 -0.065166704
000390 e0 c5 b0 bd be fc 79 bd 62 13 f6 bd e8 9a 84 bd
       -0.08631492 -0.06103205 -0.12015416 -0.064748585
0003a0 70 c7 a2 3d fe 06 97 3c 49 e5 ad 3d a9 87 d2 bd
       0.07948196 0.018435951 0.08490998 -0.10279781
0003b0 c3 cc f1 3d bd 36 f6 3d 38 d8 e3 bd e2 92 0b be
       0.11806633 0.12022159 -0.11125225 -0.1363025
0003c0 a6 46 60 3c a2 c8 a4 3c 8f 49 ae bc 5d 17 79 bd
       0.013688719 0.0201152 -0.02127531 -0.060813297
0003d0 66 db da 3d 36 e5 96 3d a6 39 cb bd db 3b eb bd
       0.10686378 0.07367937 -0.09923105 -0.11486026
0003e0 42 36 0b bd b2 8f aa 3d 1e 7f 30 3b 4d 87 19 3d
       -0.03398729 0.08328189 0.0026931236 0.03748255
0003f0 a2 1d 67 bd eb f5 62 3d fb d8 35 3d 8c 92 21 bd
       -0.056424744 0.055410307 0.04439638 -0.0394464

blocks.1.net.0.bias f4 [24]
000000 4e 00 f3 3d 52 44 5c 3b ed 95 bd 3c 18 a1 8a 3d
       0.118652925 0.0033610058 0.02314278 0.067690074
000010 95 ef f7 3c f9 22 d4 3d a2 6d fd 3d 4f cd 85 3d
       0.030265609 0.10358233 0.123744264 0.065333
000020 8e 22 a0 bd 29 59 d7 3d 16 4f 3e bd 95 0f 26 3c
       -0.07819091 0.10515053 -0.04646214 0.010135551
000030 ae 8f e0 3c f8 46 64 bd 94 1d c4 3d 9b 33 75 bc
       0.027412262 -0.055731744 0.09575954 -0.014965917
000040 af 52 9f 3d 78 9b 79 3d 02 57 02 3e 66 33 af 3d
       0.077794425 0.060939282 0.12728503 0.08554725
000050 86 8b a8 3d cf 8b fa bd 83 45 f4 3c e9 12 4d bc
       0.08229737 -0.122336976 0.029818302 -0.012516716

blocks.1.net.3.weight f4 [24, 24, 3]
000000 74 7f 97 3d f1 c3 01 bc 0d 8a 4e 3c b8 b0 d8 bd
       0.07397357 -0.007920251 0.012606156 -0.105805814
000010 dd 95 c3 bd 7f d6 8f 3d fa 33 94 3d 89 af 19 be
       -0.095500685 0.07023334 0.07236476 -0.15008368
000020 cc f6 37 bd 98 e5 01 be 3c f1 15 3d fb 52 c7 bd
       -0.0449131 -0.1268524 0.036607012 -0.09732624
000030 5b 97 c3 bd 64 b9 32 bd 2c 44 f3 3d 33 a8 25 3d
       -0.09550353 -0.043633834 0.11878237 0.04044361
000040 f7 92 84 bd 45 28 d0 bc 41 61 f8 bd 81 df 32 bd
       -0.06473344 -0.025409827 -0.12127925 -0.04367018
000050 fd 47 06 bd e6 78 ed bc ab 16 21 be 4c 8c 1b 3e
       -0.032783497 -0.028988313 -0.15731303 0.15190238
000060 06 e9 8c bd 60 18 8c 3d fd 8c a4 bd 44 84 28 3d
       -0.06880383 0.06840587 -0.08034704 0.041141763
000070 2d f0 1c 3d c4 b7 ed 3d 76 10 85 3d 4e f6 8b 3b
       0.038314987 0.11607316 0.0649728 0.004271305
000080 20 1a 0d 3e 57 0a 97 bd 95 31 ef bc 80 5e 9e ba
       0.13779497 -0.07375019 -0.029198447 -0.0012082607
000090 a8 42 57 3d fc a9 60 bd 54 27 4e 3d 7f e6 36 bc
       0.052553803 -0.05484961 0.050330475 -0.011163353
0000a0 bf 6f 19 bd 9d bc 06 bc cc 2c fc bc 23 20 2a bd
       -0.037460085 -0.00822368 -0.03078308 -0.041534554
0000b0 dd 0f 87 3d 60 14 f9 3d b1 38 33 bc 29 15 45 3d
       0.065948226 0.12162089 -0.010938809 0.048115883
0000c0 43 c0 08 bd 1d d8 f8 3b 2a 3e a8 bd d7 9d bf 3c
       -0.03338648 0.007594122 -0.08214982 0.023390694
0000d0 77 79 f6 bd 78 73 eb bc 78 b4 25 bc 30 8b ab 3d
       -0.12034886 -0.028741583 -0.010113828 0.08376157
0000e0 0d bb f5 3d f9 f8 b5 3d 2a b3 84 bd 33 6c 0a 3e
       0.11998568 0.088853784 -0.06479485 0.13517837
0000f0 f3 06 60 3d 2b a5 9f 3d c2 b0 90 3d ef b6 7b bd
       0.054694127 0.07795175 0.07064964 -0.061453756
000100 7e d8 b0 3d 63 fe d9 3b 93 5f 68 bd fa 07 9f 3d
       0.086350426 0.0066526397 -0.05673177 0.07765193
000110 fc 59 67 bd 8d 0c 02 be fd 97 87 3d 22 68 77 3d
       -0.0564823 -0.127001 0.06620786 0.060402043
000120 a0 e1 28 bd 13 b4 ed 3d ee 7a 83 bc 6f 60 a4 bd
       -0.041230798 0.11606612 -0.016049828 -0.08026206
000130 83 2b f3 3c f2 5b 85 bd e0 ff 1a 3c 0e 5c 04 3c
       0.029683834 -0.06511678 0.009460419 0.008078588
000140 3c 19 49 bc 53 22 66 3c f9 85 cb 3d d8 82 b2 bd
       -0.012274083 0.0140462695 0.09937663 -0.08716363
000150 5d c6 3a 3d eb 83 9e bb 3c 8c 97 bd 9f 7d 59 bc
       0.04559933 -0.004837503 -0.073997945 -0.013274579
000160 5c 79 2c bd 3d c0 bf 3d 82 a7 93 3d 7b 05 d4 bd
       -0.042107925 0.093628384 0.07209684 -0.10352608
000170 0f ec 98 3c 61 58 dc bb 17 85 38 3d ce b8 fd bc
       0.018667249 -0.006724403 0.0450488 -0.03097191
000180 7d 01 a0 bd f2 d1 6b bc 3a 76 de bd c7 32 d9 bd
       -0.07812784 -0.014393317 -0.10862394 -0.10605388
000190 cb e5 02 bd b0 87 7d 3d 9d 61 58 bd eb 98 8c 3d
       -0.03195743 0.06189698 -0.052827466 0.06865104
0001a0 89 0e 90 bb 73 fd 09 be 53 2d e9 bc 33 4e a3 bb
       -0.004396264 -0.1347559 -0.028463995 -0.0049836873
0001b0 5e 7b 28 3d bf d5 65 bd 93 89 50 bc dc 03 c7 bd
       0.041133277 -0.056112047 -0.012728113 -0.09717533
0001c0 70 80 8e 3c 21 23 55 bd c2 39 dc 3d 0f 5c e4 bd
       0.017395228 -0.052035455 0.10753204 -0.11150371
0001d0 86 3f 04 be b7 1f d6 bd 1e 13 b4 3d d5 06 f9 bd
       -0.12914857 -0.10455268 0.08792709 -0.12159506
0001e0 32 f6 bf 3d 84 d5 07 be 52 a6 31 bd 1f 59 a0 bd
       0.0937313 -0.13265043 -0.043371506 -0.078294985
0001f0 85 7e f4 3c 94 a6 ba bc ee 33 04 3c d6 0d e9 bc
       0.029845485 -0.022784509 0.008069022 -0.02844898
000200 08 12 a9 39 38 ff da bd f5 2d a8 bd 96 c7 11 3d
       0.00032247626 -0.1069321 -0.082118906 0.03559073
000210 09 c3 e1 3a 07 75 a2 bd ae 4b 4a 3c 8d 1b d9 b9
       0.0017224263 -0.079324774 0.012347145 -0.00041409992
000220 ca 4f 2a bc 29 7a 07 bd 3b 16 66 bc 06 cb 61 3d
       -0.010395 -0.033075485 -0.014043386 0.05512526
000230 84 54 3e 3c 7d 3b 6f bd 84 53 e0 bc 60 28 8b 3d
       0.01161683 -0.05840634 -0.027383573 0.0679481
000240 5a b0 60 3d f5 71 0f be c0 2f af 3d 95 21 e8 3d
       0.054855682 -0.14008315 0.085540295 0.1133453
000250 02 7d 1d bd e1 c2 22 bd c2 eb 03 3d e1 5f 11 bd
       -0.038449295 -0.039736632 0.032207258 -0.035491828
000260 42 20 30 bd ae 11 d8 bc a3 da 86 bb 52 47 4b bd
       -0.042999513 -0.026375618 -0.004115419 -0.049628563
000270 6f 6a 55 3d 26 14 bd bb 64 31 c5 3d 97 90 e1 3d
       0.052103456 -0.005770224 0.09628561 0.110139064
000280 3f c7 5a 3d e7 36 a1 bc cb b5 4f 3d f7 c0 e3 3d
       0.053412672 -0.0196795 0.05071048 0.111207895
000290 a0 ae ef bc be 3f a0 3d 57 ae 76 3d 13 b9 f6 bb
       -0.029258072 0.07824658 0.060224857 -0.007529387
0002a0 ea 2e 05 3e 16 24 c5 3d 78 f7 b3 bd be 1c ae 3d
       0.13006178 0.096260235 -0.08787435 0.08501576
0002b0 83 f6 fe bd 46 73 dc 3c 49 9b e7 3c 55 40 ec 3d
       -0.12449362 0.026910435 0.028272288 0.11535708
0002c0 84 cd b7 bc 36 1c 8e bd 3a ec 7a 3d ed 7b 90 3d
       -0.022436865 -0.069389746 0.06126044 0.07054887
0002d0 0b 5a 11 3e 0d 01 2b 3d 1e 92 ad bb 1f 14 f6 3d
       0.14194505 0.04174905 -0.0052969595 0.120155565
0002e0 98 21 07 bd f8 2d 1d 3e 94 9a 00 be 5c 98 ce 3d
       -0.032991022 0.15349567 -0.12558967 0.10087654
0002f0 bd 8a 04 3e fb bd 1b 3c 0d d2 b1 bd 2e fb ac bc
       0.1294355 0.009505744 -0.08682642 -0.021115866
000300 ed 80 3c 3d 61 d9 ff 3c 23 df 85 bd 09 68 80 bd
       0.04602139 0.031231584 -0.065367006 -0.06269843
000310 81 3f aa 3d 77 ac d6 bd 8b 57 10 3c 64 4b 33 bd
       0.08312894 -0.10482114 0.008809934 -0.04377307
000320 51 f7 85 3d c3 6f 11 3e 2d 9b b5 3d 46 ba 13 3e
       0.065413125 0.1420279 0.08867488 0.14426526
000330 8a bc 92 bd 8f 67 3f bd b2 81 96 3c 9a e2 1b bd
       -0.07164867 -0.04672962 0.01837239 -0.0380579
000340 d3 14 a3 bd 8a a8 74 3b 42 56 44 bd 27 5b 59 3d
       -0.07962956 0.0037331902 -0.047933824 0.053065445
000350 b9 f5 2d bd e2 c0 36 bd 01 91 00 3e af 38 fd bc
       -0.042470668 -0.04461754 0.12555315 -0.030910818
000360 14 05 62 3d 09 26 1c 3d 82 08 fe bc eb 61 11 3d
       0.055180624 0.03812221 -0.031009916 0.035493772
000370 0d 30 fa bd c7 8f 67 bc 40 0d 50 bd c8 a0 e1 bd
       -0.12216196 -0.0141334 -0.050793886 -0.11016995
000380 57 52 a5 bd ab 37 97 bd 80 7b 42 3c 4a d1 a1 3d
       -0.08072346 -0.07383665 0.011870265 0.07901247
000390 81 b6 94 bd ae 0b f3 bb b5 48 2d 3c 17 b0 c0 3b
       -0.07261372 -0.007417164 0.010576417 0.0058803665
0003a0 a1 fe 00 be ce 7e 7b b9 60 7f 94 bd 01 db 7b bc
       -0.12597133 -0.00023984464 -0.07250857 -0.015372039
0003b0 6a 81 67 bd d0 a8 b8 bd c5 45 be 3d e3 66 3a bc
       -0.056519903 -0.090165734 0.09290651 -0.011377069
0003c0 69 e4 4b bd 01 d3 31 bc fa 1c 93 3c a0 61 27 3c
       -0.049778376 -0.01085353 0.017958153 0.010216147
0003d0 0c d0 bf 3d f9 30 48 bd cd 6c d6 38 f4 b7 e6 39
       0.09365854 -0.04887483 0.00010224581 0.00044006074
0003e0 7b 9b ed 3b 41 5c 05 be 03 e4 8e 3d e4 f7 dc 3a
       0.0072512007 -0.13023473 0.069770835 0.0016858545
0003f0 43 f1 bd 3d f2 61 93 3c b7 00 d3 bd 72 a6 68 bd
       0.09274533 0.01799104 -0.10302871 -0.05679936

blocks.1.net.3.bias f4 [24]
000000 46 58 a7 3c fb 26 d5 bd cb 31 7c 3c c5 f4 9a bd
       0.020427834 -0.104078256 0.015392731 -0.07566217
000010 7a c4 e1 3d 45 6b 01 3e 09 9b 35 bb 64 30 55 bd
       0.11023803 0.12638576 -0.0027710816 -0.052048102
000020 db 86 a7 3b fa 58 ab 3d c5 f3 fb 3c 64 d6 d9 bb
       0.0051125116 0.0836658 0.030755887 -0.006647872
000030 1c 2d 75 3d b0 b0 42 3d 32 8e 01 bd 89 52 90 3c
       0.059857473 0.047531784 -0.03162975 0.01761748
000040 3e 3e 09 3c 16 99 b7 3d 71 44 4f 3c 55 43 52 bd
       0.008376656 0.08964746 0.012650595 -0.051333744
000050 98 03 af 3d ff 64 c3 3c 39 16 9d bd b0 5e 14 bd
       0.08545607 0.02385187 -0.07670254 -0.036223114

blocks.2.net.0.weight f4 [24, 24, 3]
000000 81 33 88 bb 44 b9 0b be 38 19 30 bd 3b 70 7b bd
       -0.0041565304 -0.13644892 -0.0429928 -0.06138633
000010 28 1b b7 bc cb e9 1b be f1 3a 54 bd a4 96 1f bd
       -0.022351816 -0.15225904 -0.051814023 -0.03896202
000020 15 82 cd bd 1b 74 31 3d 93 af 87 3d 21 06 cd bb
       -0.10034577 0.043323617 0.06625285 -0.006256834
000030 f2 4f 52 bd 6b 1f bb bd 6b 4f f1 3b d8 90 6c 3d
       -0.051345773 -0.09136852 0.0073642037 0.05775532
000040 37 23 b1 3c 37 85 26 3c 14 c9 31 3d 68 d7 00 3e
       0.021623237 0.010163597 0.043404654 0.12582171
000050 a8 26 6a bc 2e 73 b9 bd ef 6e 14 3d 2a a0 33 3d
       -0.014291443 -0.09055172 0.036238607 0.043853916
000060 99 1e e1 3d ac 9c 72 bc d7 22 7d bc f0 a5 b1 3c
       0.10992164 -0.014807861 -0.015450201 0.02168557
000070 11 bb e6 3c 48 cb 91 bd 3e d7 a9 bd e3 ed 52 bc
       0.028165372 -0.07118851 -0.08293007 -0.012874099
000080 97 2b 12 be 6a a2 ce 3d fe 3d e2 bc 16 2a 69 bd
       -0.1427444 0.10089572 -0.02761745 -0.056924902
000090 e8 f2 8f 3d 88 27 ee 3d be a6 bf bd e7 b3 73 3c
       0.070287526 0.11628634 -0.093579754 0.014874435
0000a0 f3 8e 1f bc 89 d4 2e bd 40 f3 52 bd e0 9b 34 bc
       -0.009738672 -0.042683158 -0.051501513 -0.011023492
0000b0 04 f3 01 3e 1e f2 1f bd 5d 6d 58 3d 43 83 53 3c
       0.1269036 -0.03904926 0.052838672 0.012909713
0000c0 dd 23 f0 3d b6 27 dc 3d 22 b2 0b 3d 74 33 17 3d
       0.117255904 0.10749762 0.034105428 0.036914304
0000d0 75 bb b3 bb c3 00 01 3e e4 92 64 3d 64 fb 48 3d
       -0.005484993 0.12597947 0.05580415 0.04906787
0000e0 3f 47 78 bd 14 8e 4e bd a0 90 14 be d8 d6 00 bd
       -0.06061482 -0.050428465 -0.14508295 -0.03145489
0000f0 13 b9 89 bd 7e 95 65 bc 08 2f 83 3c ed 8d 57 3b
       -0.06724753 -0.0140126925 0.016013637 0.003289099
000100 d8 bc 6c bd 78 34 10 bc 9c 7b c8 3c 19 97 5e 3d
       -0.057797283 -0.008801572 0.024473004 0.054343317
000110 f4 ea ff bd 79 84 83 3d c8 b6 2b be f6 55 a9 3b
       -0.124959856 0.064217515 -0.16768944 0.005167718
000120 14 84 bb bd d9 fd 4e 3d 8d c5 67 bd c8 d6 56 bd
       -0.09156051 0.050535057 -0.056584883 -0.052450925
000130 8d 2f 85 bd ad 72 9c bc 36 06 5f bd 48 a2 4b bd
       -0.0650321 -0.01909765 -0.054449283 -0.04971531
000140 8c 73 e5 b9 f7 89 e5 bc 17 fb 8a bd 17 8a 55 3c
       -0.00043764373 -0.028019888 -0.06786173 0.013033411
000150 96 4b 3d 3d f3 51 a5 3d b3 92 f3 3d 94 ea 1d 3d
       0.046214662 0.08072271 0.11893215 0.03855379
000160 69 20 81 3d f3 7f 20 bc 1b 72 ed 3d 68 9b 6a bd
       0.0630501 -0.0097961305 0.115940295 -0.057277113
000170 be 59 e9 3d 61 cb b8 3d e2 8c 90 bd 2b a7 b9 bd
       0.1139407 0.090231664 -0.07058121 -0.09065088
000180 e9 94 d8 3c e8 22 8e 3b e6 8c de bd ac dc d0 3d
       0.026438193 0.0043376572 -0.10866718 0.1019834
000190 e9 93 02 3c 86 2d 3c bd a7 4e 58 3c 8d 38 dd bd
       0.007969835 -0.045941852 0.013202346 -0.10801802
0001a0 8b ce aa 3d b5 e4 18 3d 64 48 ae 3d ed 85 38 3c
       0.08340176 0.037327487 0.08509901 0.011262399
0001b0 7f 8e f0 3c 70 77 8b 3d 24 67 98 3d 42 8d ae bd
       0.029364822 0.0680989 0.074415475 -0.085230365
0001c0 c9 2f a4 bd 62 09 a6 3d 8f ff bf 3d a4 f1 87 3d
       -0.08016927 0.081072584 0.09374916 0.06637886
0001d0 3d 5f b0 bd 2f 22 10 3d f9 ee 0d bd 7f 68 aa 3d
       -0.08611915 0.03518885 -0.03465173 0.08320712
0001e0 91 b7 06 3c 0e 54 cb bc d1 87 05 3d 2d 6a 4f 3c
       0.008222477 -0.024820354 0.032600228 0.012659592
0001f0 88 05 4a 3c 13 af ea bd 0e 4d b5 3d a9 48 09 3e
       0.01233042 -0.11459174 0.08852588 0.13406624
000200 4c e5 25 bd 26 6b 39 3d 69 60 e6 bd 49 50 2b be
       -0.040501878 0.0452682 -0.112488575 -0.16729845
000210 2c ae 8a bd a2 e1 36 3d 01 c9 05 be 0a 2b cc 3d
       -0.06771502 0.044648774 -0.13064958 0.099691465
000220 d0 1d 99 3c 3c 72 0c be e9 ba 9d 3c a8 5b 4e bd
       0.018690974 -0.13715452 0.019254165 -0.05038038
000230 92 e7 00 3e c4 3f 15 bd 5a fc 69 bd 6f f6 a9 bd
       0.12588337 -0.036437765 -0.057125427 -0.082989566
000240 e9 1f c8 bc 84 9b f7 3d d5 f5 1b 3d f5 a7 06 bd
       -0.024429278 0.12090209 0.03807624 -0.03287502
000250 3a ea 29 3d 79 8f 45 bd 73 95 8f bd cf de 77 bc
       0.04148314 -0.04823253 -0.07010927 -0.015128805
000260 cf 9d 05 be 5b 6b 2c 3d 49 8a da 3d 56 d1 6d 3d
       -0.1304848 0.04209457 0.10670907 0.058060966
000270 2a 9f 0c 3d 48 02 c1 3b bc 47 54 3d c3 19 03 3e
       0.03433148 0.0058901645 0.051826224 0.12802796
000280 9a 58 88 3c 53 dc 45 3d 8a e8 0f 3d 41 9e 06 3d
       0.016643811 0.04830582 0.035133876 0.032865766
000290 bb 58 94 3d 72 c9 10 be 4a 62 17 3e 63 6e b6 3b
       0.072434865 -0.14139345 0.14783588 0.0055673583
0002a0 13 b7 6b bd 2d ce de bc b9 09 1e bc ce 36 37 3d
       -0.05754764 -0.027197922 -0.009645873 0.04473
0002b0 df 51 be bd 02 ab 97 3d 9a 18 12 be 4f be ca 3c
       -0.092929594 0.07405664 -0.14267197 0.02474895
0002c0 05 35 85 bd 3d 5c 95 bd 46 16 dc bd a6 a1 88 3d
       -0.06504253 -0.07292984 -0.10746436 0.06671457
0002d0 25 66 65 bd 58 49 1a bd 4d a5 e8 bd 9a ae 7b 3c
       -0.056005616 -0.037667602 -0.113596536 0.0153614525
0002e0 c8 17 c3 bd b4 a1 25 3e b9 9d 03 3e 2d 11 bb 3d
       -0.0952602 0.16174966 0.12853135 0.091341354
0002f0 67 80 a6 3c 42 74 f6 3d f3 58 9d bc 08 91 85 bd
       0.020324899 0.12033893 -0.019207453 -0.06521803
000300 e4 a5 69 bd d2 d5 91 bd 04 85 c1 bc ca 4e 86 3d
       -0.05704297 -0.07120861 -0.023622997 0.065579966
000310 84 17 13 3d 88 83 eb bc 56 d4 e3 b9 48 c7 95 bd
       0.035911098 -0.028749242 -0.00043455017 -0.073134005
000320 26 08 8f 3d 3f 08 68 3d 10 58 00 3d d9 a5 f5 3d
       0.06983976 0.05664849 0.031333983 0.119945236
000330 4a 13 9b 3d db 30 e8 bc 0d 1e be bd 5c 8e 5e bd
       0.075720385 -0.028343609 -0.092830755 -0.054334983
000340 d9 9d 17 3e 13 78 6c bc fc 92 4f bd e6 3d 9a bd
       0.14806308 -0.014432925 -0.050677285 -0.075313374
000350 e1 6d a3 bd ca 69 62 bc 47 de 36 bd ea 5d 5b bb
       -0.07979942 -0.013819167 -0.044645574 -0.0033472725
000360 e8 b6 31 bd a1 d2 26 3d ec 92 35 3d e1 68 7b 3d
       -0.043387324 0.040728215 0.04432957 0.061379317
000370 5f b8 7f 3d 9a 6f e3 bd 1a e9 ac bc d9 37 f6 bc
       0.06243169 -0.11105271 -0.021107245 -0.030055927
000380 c2 eb ff bd 02 73 2c 3d 4c 9a 8a 3d 64 93 b1 bd
       -0.12496139 0.042101867 0.06767711 -0.08670691
000390 e8 da 0f bc a9 88 d0 3d 5b c2 04 bc e8 91 dc 3d
       -0.008780219 0.10182316 -0.008102979 0.10770017
0003a0 06 82 a3 bd 36 4e 7b bd 88 c2 78 bd 3d 29 36 bd
       -0.079837844 -0.061353885 -0.060732394 -0.04447292
0003b0 ae c6 c9 3c 44 e8 80 bc 10 21 90 3d dd 03 62 bd
       0.02463087 -0.015735753 0.07037556 -0.055179466
0003c0 86 08 83 3d b5 68 fb 3d a1 5a 73 3d a0 31 20 bd
       0.0639811 0.12275831 0.059412602 -0.039109826
0003d0 81 06 96 bd 02 1e f4 bd aa 62 60 3d 7a b8 f4 bd
       -0.07325459 -0.11919786 0.054781593 -0.119492486
0003e0 4b eb 01 be 8e d3 23 bd c6 73 ac 3d 10 6b 00 be
       -0.12687413 -0.039996676 0.084205195 -0.12540841
0003f0 fb 12 aa bd 1b a6 6d bd e1 b8 5f 3d 90 c4 d5 3d
       -0.083044015 -0.05801974 0.054619674 0.10437882

blocks.2.net.0.bias f4 [24]
000000 38 4d b1 3d ae 4d 95 3d a3 fb 91 bc b9 82 84 3d
       0.086573064 0.07290207 -0.017820185 0.06470246
000010 bb dc 8c bd e8 69 00 3e 49 e1 0e 3d 8b 89 cc bd
       -0.068780385 0.125404 0.034882817 -0.09987172
000020 b2 96 82 3c cf c9 18 3d 0a 1c 37 bc 07 f1 cc 3d
       0.015940998 0.037301835 -0.011176119 0.1000691
000030 26 b5 eb 3c ca a3 d7 bd 95 7b b0 3d 7f 2c b3 bb
       0.028772902 -0.10529287 0.086173214 -0.005467951
000040 26 5c b0 bd e4 1a 4b bd 66 0e d2 3c bc eb 12 3c
       -0.08611326 -0.04958619 0.025641631 0.008967336
000050 06 ae 6b 3d 8b ad 9f bd 0b 60 a7 bd c8 fe 7b 3d
       0.05753901 -0.077967726 -0.081726156 0.061522275

blocks.2.net.3.weight f4 [24, 24, 3]
000000 85 af 62 3d 54 7b ec 3d 02 84 83 3d 06 ba 1e bd
       0.05534317 0.115469605 0.06421663 -0.038751625
000010 ec 17 08 be 89 b7 92 3d 22 bb 82 bd a5 e6 4d 3d
       -0.13290375 0.07163913 -0.06383349 0.050268788
000020 0b d2 eb 3d fc 24 34 bd 61 6f ac 3d 63 4b a4 3b
       0.11514672 -0.043980584 0.08419681 0.0050138696
000030 a5 3c 07 3e 7e 88 b7 bd fd 2e 34 3d 7e e1 30 3b
       0.13206728 -0.08961581 0.043990124 0.0026989873
000040 fc a1 73 bd 0f f4 b5 3d b5 1c 5d bc ec ea 78 bd
       -0.059480652 0.08884441 -0.013495614 -0.060770914
000050 e6 92 9f bd ab 04 c0 3d 6d f2 e6 bc 7d 8c aa bc
       -0.077916905 0.0937589 -0.02819177 -0.020818943
000060 ec 04 07 bd f0 49 85 bd 3b 1e 8a 3d 13 d9 a6 3c
       -0.03296368 -0.06508243 0.06744047 0.02036718
000070 56 0d b3 bd f6 b5 4e 3d 4b 2e b7 3d a4 7e 99 3d
       -0.08742778 0.0504665 0.089443766 0.07494858
000080 e2 c0 2e bb 8d 01 63 3c c7 09 1a 3d 54 92 08 3d
       -0.002666526 0.01385535 0.03760698 0.033342674
000090 68 fb 9d 3c a1 df 93 bd a1 69 aa 3d a1 fa 8e bd
       0.019284919 -0.07220388 0.08320928 -0.069813974
0000a0 57 9a 6b bd 52 4d a3 bc 4e 4f 58 bc 8e 21 82 bc
       -0.057520237 -0.01993433 -0.013202501 -0.01588514
0000b0 ae f3 b5 bc 56 3d 68 3d 54 c5 d9 3d 52 79 d8 3d
       -0.022210922 0.05669912 0.106333405 0.10570015
0000c0 5e d8 c7 3d 11 dc 67 3d ab 68 10 bd 11 4d 9e bc
       0.09758066 0.056606356 -0.03525607 -0.019323858
0000d0 a5 ed 32 3d 34 ec 21 bc cb af b5 3b cd 6b 96 3d
       0.043683667 -0.009882975 0.005544638 0.0734478
0000e0 06 79 e7 3d a5 02 23 3d bf 20 88 bd bd 89 a4 3c
       0.1130238 0.039797444 -0.06646871 0.02008521
0000f0 35 0a a0 bd 32 eb 94 3d 19 ce 4d bd cc 55 37 3d
       -0.07814447 0.072714224 -0.05024538 0.044759557
000100 20 a9 f5 3d 47 86 e1 bc 3d 94 83 bd 43 8d 07 3d
       0.11995149 -0.027529849 -0.064247586 0.033093702
000110 52 8e 3d 3c fa 1a dd 39 7f b7 31 3d 5e 2d a9 3d
       0.011569576 0.00042172504 0.043387886 0.08260606
000120 59 12 92 bd 13 5a 57 3d 68 96 d1 bd c0 62 17 bd
       -0.07132406 0.052576136 -0.10233766 -0.03695941
000130 9a 94 e8 bb 5b 41 72 3d 9c cf a6 bd f3 d3 fa 3b
       -0.007097793 0.05914436 -0.08145067 0.007654661
000140 22 32 cd bd 0b 9a a4 bd 70 a7 11 3d 96 87 67 3c
       -0.10019328 -0.08037194 0.03556007 0.014131447
000150 9f df 60 bd 2b 26 d0 bc 73 88 91 bd 4d 99 70 3d
       -0.05490076 -0.025408825 -0.07106104 0.05873995
000160 7e 8f 16 be 7d 95 05 be 1d da 19 be 50 64 10 3e
       -0.14703175 -0.13045307 -0.1502461 0.14100766
000170 38 b8 0d be 88 ab 67 3d 1f c9 ef bd 82 68 0c 3d
       -0.13839805 0.05656007 -0.11708283 0.034279354
000180 d6 4f 25 3d 8a 96 25 3d 75 c4 ee bd 1c 78 bc bb
       0.04035934 0.04042677 -0.11658565 -0.005751623
000190 f3 4c 07 bd 01 b5 38 ba 2b b5 87 3d dc 2d 8a bb
       -0.03303237 -0.00070460147 0.06626352 -0.0042168926
0001a0 19 14 87 3d e1 c4 84 3d 15 6a 95 bd 9d 4d 54 3a
       0.0659563 0.06482864 -0.07295624 0.00080987235
0001b0 82 23 4d bd 0d c0 e8 bd 55 eb 31 3d 6f a6 c3 3c
       -0.05008269 -0.11364756 0.04343732 0.023883073
0001c0 a2 f1 93 bc 1b 03 6c bc 28 9d 0d be a8 6a 11 bc
       -0.018059555 -0.014405037 -0.13829482 -0.0088755265
0001d0 7d 18 d8 3d 0b 5a 9a 3d 1b 08 4f 3d 95 1d c3 3c
       0.10551546 0.075367056 0.05054484 0.023817817
0001e0 3e f3 cb 3c e1 76 64 3c f4 ff 1a 3d 9a df 3e bd
       0.02489626 0.013944359 0.037841752 -0.04659996
0001f0 f0 d2 19 be ab 12 45 3d ae bd c2 bd 1d 9c 21 bd
       -0.15021873 0.048113506 -0.09508835 -0.03945552
000200 7b fc a4 bc be 89 b4 bd 53 57 8d 3c f0 06 a2 3d
       -0.020139923 -0.08815335 0.017253553 0.079114795
000210 d6 98 db 3b 00 b6 41 bd f0 fb 4b 3d 2b a8 f2 bd
       0.006701569 -0.04729271 0.049800813 -0.11848482
000220 88 55 dc 3c 0a 5f d9 3c 46 63 d1 bc f3 21 6c 3d
       0.026896253 0.026534576 -0.025560033 0.057649564
000230 a8 37 49 bd c8 cb dc bd 9b 67 fc 3c f9 00 ca bd
       -0.049125344 -0.10781056 0.030811122 -0.09863467
000240 41 d0 96 3d 9f 3a 01 3e ce 0b 3b bd 08 6c cf bd
       0.0736394 0.12620018 -0.045665555 -0.10128027
000250 90 98 4d 3d 03 eb dd bc c4 16 19 3c 87 f7 be 3d
       0.050194323 -0.027089601 0.009343807 0.09324556
000260 41 a8 ad 3c 4f 92 df 3c 71 34 53 3d 93 8e 84 bd
       0.021198394 0.027291445 0.051563684 -0.064725064
000270 af 38 8b 3d 93 a5 90 bc ec af e3 3d ba 17 80 bd
       0.06797921 -0.017657077 0.11117539 -0.062545255
000280 b8 30 b5 bd 6e cd 78 3d 67 0e ea bd c4 5a aa bd
       -0.08847183 0.060742788 -0.11428528 -0.083180934
000290 b5 b1 e7 3c 65 68 a9 bb b2 e4 e9 bc e2 6f ab 3c
       0.02828298 -0.0051699155 -0.028551433 0.020927373
0002a0 79 44 e4 bd 10 1c 74 bd 4a 6d 8e bd 87 16 9c 3d
       -0.111458726 -0.059597075 -0.06954439 0.07621484
0002b0 98 8e f0 bb 27 57 94 3d 0c 93 03 bd c7 1d 58 3d
       -0.0073412172 0.072431855 -0.032122657 0.052762773
0002c0 2f 88 d8 ba ed b0 2f bc 92 ac 3c bd 68 d5 02 3e
       -0.0016520078 -0.010723335 -0.046063013 0.1277672
0002d0 b5 49 d0 3d f1 b7 bc 3c 3e d4 d0 3d 01 92 b0 bd
       0.101703085 0.023036929 0.10196732 -0.08621598
0002e0 da c6 a7 3d 77 8a ac 3d f2 91 76 bd d4 e5 1e 3c
       0.08192225 0.084248476 -0.060197778 0.00969835
0002f0 a4 f6 bb 3d 80 ce 5c bd 62 72 85 bc bb a8 27 3c
       0.09177902 -0.05390787 -0.016289894 0.0102331
000300 a7 63 c5 bd 4b 5a f2 3c 13 51 f2 bc 32 85 66 bd
       -0.09638148 0.02958407 -0.029579675 -0.05627937
000310 77 24 b3 3c 88 53 2c bc 11 25 09 3d 74 7a d3 bd
       0.021867974 -0.010517962 0.033482615 -0.103260905
000320 2a 3c 0d 3e 43 81 40 bd a9 f0 8f bd 50 ac cd 3b
       0.13792482 -0.046998274 -0.07028324 0.0062766448
000330 67 5f b5 3d 84 60 cf 3d b3 56 2a bd 4f b9 ec bd
       0.08856087 0.10125831 -0.04158659 -0.11558782
000340 84 8f 9a bd cd b2 66 bd 24 fe 33 bc 09 a2 0d 3e
       -0.07546905 -0.05632286 -0.010985885 0.13831343
000350 ff 70 a9 3d 66 fd 69 bd 0c 6b 9b bc e5 5b 32 3d
       0.082735054 -0.057126425 -0.018971942 0.04354467
000360 91 ce 0d bd d1 f0 72 3b 11 48 de bd f0 36 6f 3d
       -0.034620825 0.0037069807 -0.10853589 0.058402
000370 f2 c8 0e be d3 98 aa 3d 0e 30 02 3e df 41 e0 3d
       -0.13943842 0.0832993 0.12713644 0.10950064
000380 e8 e3 d2 3d eb 43 62 3d c2 22 0d 3e 7d a0 c5 bc
       0.10297376 0.055240553 0.1378279 -0.024124378
000390 cd be 37 bc e9 39 be ba c6 04 b8 3c d4 8d 95 bd
       -0.011214924 -0.0014513108 0.022463214 -0.07302442
0003a0 7a 05 9f bb f3 e3 dd 3a 8f 55 eb bc d7 7b 51 bd
       -0.004852948 0.0016928896 -0.028727321 -0.051143494
0003b0 22 f4 c2 3d 5d ab ad 3d 67 0b 26 bd ed 3c b9 bc
       0.09519221 0.084799506 -0.040538218 -0.02261206
0003c0 46 d8 fe 3c a5 f5 dc 3d 24 0d f2 ba b2 db 32 bd
       0.031108987 0.107890405 -0.0018467051 -0.04366655
0003d0 7f d8 ea bd d6 34 52 bd bd 18 b4 3c 41 66 78 bd
       -0.114670746 -0.05131992 0.021984452 -0.060644392
0003e0 2d 6a e0 3d 0d bc 64 3d e7 82 42 bb 6a d2 e6 3d
       0.109577514 0.0558434 -0.0029680075 0.11270602
0003f0 45 cb 67 3c 43 75 81 bd 7c 5f 48 3d b3 07 8f 3d
       0.014147584 -0.06321194 0.048919186 0.069838904

blocks.2.net.3.bias f4 [24]
000000 47 ee ed 3d ea 9a f5 bd a8 e1 c1 bd 49 7d ef 3d
       0.116177134 -0.11992438 -0.09466869 0.11693818
000010 4a 5e c8 bd 29 9f 8b bc 70 a2 f3 bd 42 b9 d0 3d
       -0.09783609 -0.017043667 -0.11896217 0.10191585
000020 3d 8c 98 3d 8b 63 ec 3d 3b 31 04 bc 68 7b d0 3d
       0.07448623 0.11542424 -0.008068378 0.10179788
000030 a3 7e cb bc 87 0c 16 bd 2a 43 30 3d fd 47 03 3e
       -0.024840659 -0.03663304 0.043032803 0.1282043
000040 c5 f3 5c 3d 1e 19 d1 bb 37 be 96 3d 96 ec 0c be
       0.053943414 -0.006381168 0.07360499 -0.13762125
000050 a5 13 bb bd 5a 87 10 be e0 bb 87 bc 13 b3 cc bc
       -0.09134606 -0.14114133 -0.016569078 -0.024987733
