Trans/nle_transformer.pt (torch, 308451 bytes, 16 tensors)

encoder.layers.0.self_attn.in_proj_weight f4 [96, 32]
000000 aa db 72 3e 2f e5 8d bd 8c a0 0a 3e 95 f5 0f bd
       0.23716608 -0.06928479 0.13537806 -0.035146315
000010 b9 36 09 bd ca 9f 13 be bc 91 ec 3b 48 ba 2b 3e
       -0.033499453 -0.14416423 0.0072195213 0.1677028
000020 be 8a e2 bc af b3 90 bd 15 12 4f bc 87 85 46 bc
       -0.027654048 -0.07065522 -0.012638588 -0.012116796
000030 c7 22 c1 3c 0e 1d 22 be f4 34 98 bd 8d 55 c6 3d
       0.023576153 -0.15831396 -0.07431975 0.09684286
000040 e5 73 3c 3e b0 51 38 3c 3f 75 d0 bd 79 89 29 3e
       0.18403585 0.011249945 -0.10178613 0.16556348
000050 37 5c 3a 3e c9 f6 d5 3d 29 91 77 3d 60 29 0c be
       0.1819924 0.10447461 0.06044117 -0.13687658
000060 0e 21 d7 bd 91 76 20 3e ad b1 83 3e 78 8f ac 3c
       -0.105043516 0.1567023 0.25721493 0.021064505
000070 ab 2f 2d 3d aa 46 6a be 69 13 02 be a5 04 5f bd
       0.042281788 -0.22878519 -0.12702717 -0.05444779
000080 24 60 93 3d aa 5d 81 bd 89 7c c9 bc 9c 6a a9 bc
       0.07196072 -0.06316693 -0.024595516 -0.020680718
000090 eb 87 00 3d e9 ef 8e bd 73 6f bd 3d 5b 27 b1 3c
       0.03137962 -0.06979353 0.09249773 0.021625211
0000a0 62 fb 1d 3e f6 94 c5 bd 01 a0 be bd 6a f3 9e bd
       0.15427926 -0.09647553 -0.09307862 -0.07761271
0000b0 26 ee f2 3d 82 4c 12 be 07 01 41 3d 4b e2 3f be
       0.118618295 -0.14286998 0.04712012 -0.18738668
0000c0 a0 35 47 3d 6e 29 f9 3d 0d 50 1c 3e 5d a4 c0 bd
       0.048635125 0.12166105 0.15264912 -0.0940635
0000d0 16 c8 f1 bd fb 22 4b 3e fa ce c4 3c b8 06 23 3e
       -0.118057415 0.19837563 0.024024475 0.15920532
0000e0 f7 59 34 be 32 7f db 3d 44 5c 7a 3d 1c 40 16 3e
       -0.17612444 0.1071762 0.061123148 0.14672893
0000f0 28 32 0d be a6 87 1e be 7a d0 9f bc 48 92 0e 3e
       -0.13788664 -0.15481433 -0.019508589 0.1392299
000100 69 62 05 3e e2 a4 33 be 19 68 c0 3a b5 0c 01 bd
       0.13025822 -0.17543367 0.0014679461 -0.03150626
000110 0e e0 04 3e 55 83 6a bc e5 bc ee 3d 29 d4 08 3d
       0.12976095 -0.014313539 0.116571225 0.033405457
000120 1e ad f0 bd 50 b0 e6 3d 51 5b 0f be 91 29 fa 3d
       -0.117517695 0.11264098 -0.13999678 0.122149594
000130 cd 07 14 be 11 dc ff bd e5 fe f8 bd 47 e4 2e 3e
       -0.14456101 -0.12493146 -0.12157992 0.17079268
000140 e2 d6 c3 bd db 63 50 be 72 34 f8 3d aa d6 2e be
       -0.0956247 -0.20350592 0.12119378 -0.17074075
000150 62 9c 36 3e 88 55 3b bd 53 56 08 3e 6b f0 bd 3c
       0.17833093 -0.045735866 0.1331418 0.02318593
000160 f8 b5 da bd 68 79 cc bd 2d 5a 38 3d 59 e7 71 be
       -0.10679239 -0.09984094 0.045007873 -0.23623408
000170 16 4d 11 be c1 74 74 be af 78 0a be 6b 89 17 3e
       -0.14189562 -0.23872663 -0.135226 0.14798515
000180 6b e4 9d 3d 6d 18 60 be 3b 97 7c 3d 91 e1 13 3e
       0.07709583 -0.21884318 0.061667662 0.14441516
000190 1b 7d 73 3d bd 60 b1 3d 5c 9f 5a 3d aa 13 45 be
       0.05944548 0.086610295 0.053374633 -0.19245782
0001a0 40 6c 39 be 22 b4 8c bd a5 9f 54 3c 49 f6 3c be
       -0.181077 -0.06870295 0.012977515 -0.18453325
0001b0 81 18 a4 bb 99 16 23 be 03 0b 17 be c8 b8 11 3e
       -0.005007804 -0.15926589 -0.14750294 0.14230645
0001c0 c6 0c 13 be 9d 3f af 3d bc a2 3e 3e 9c 21 4b bd
       -0.14360341 0.08557055 0.18616766 -0.0495926
0001d0 34 f7 58 be c8 c6 d9 bb 63 4d 60 bd 30 66 3f 3e
       -0.2118805 -0.006646011 -0.0547613 0.18691325
0001e0 bf 3d f7 3d 41 24 9b bd 4c d1 aa 3e e3 17 3c be
       0.12072324 -0.07575274 0.33362806 -0.18368487
0001f0 be 85 4e be 5d 14 10 3c 3b 2c c8 3d 1a c6 18 3e
       -0.20168206 0.0087939175 0.09774061 0.1491932
000200 72 e3 d7 3d 82 7b 15 3e 73 7a 07 3c 24 04 09 be
       0.105414286 0.14597896 0.00826894 -0.13380486
000210 6b 9c 56 bc c1 1b a6 3c 54 e8 c9 bd 82 90 8c 3d
       -0.013098816 0.020276906 -0.09858766 0.068635
000220 7d c0 d8 3d 34 90 47 3e ec 47 44 be 92 96 ba bd
       0.10583589 0.19488603 -0.19168061 -0.0911075
000230 6d 04 17 be 5b 95 1c 3c 97 0c 11 be e4 95 00 3e
       -0.14747782 0.0095570935 -0.14164959 0.12557179
000240 18 b0 96 3d 73 d0 d7 bd 91 03 e0 3d 76 33 c8 bd
       0.07357806 -0.105378054 0.1093818 -0.097754404
000250 33 85 95 bd a0 48 32 be 83 eb b5 3d 15 93 27 3c
       -0.07300796 -0.17410517 0.08882811 0.010227938
000260 22 9d 8e bd 5b 26 59 be cc a9 47 3e cb 37 62 bd
       -0.069635645 -0.21206038 0.19498366 -0.05522899
000270 e3 d8 e9 bc f4 6e 0d be a0 16 d4 bd f2 8b 8d 3d
       -0.028545802 -0.13811857 -0.10355878 0.06911458
000280 09 22 85 3d e9 37 c9 bd eb 5e 29 be 5a a8 a2 3d
       0.06500632 -0.09825117 -0.16540115 0.07942267
000290 3d 4c bf 3d 0d a5 e6 bd 95 a3 06 3e 85 5b 0a 3d
       0.09340713 -0.1126195 0.13148339 0.033778686
0002a0 7a 07 e6 3c 21 57 8c 3d 62 76 28 3e f8 a8 17 3e
       0.028079737 0.06852556 0.1645141 0.1481055
0002b0 4d 32 9f 3d 6c 71 ee bc 09 f7 bc bd 68 4a 98 be
       0.07773266 -0.029106818 -0.09226806 -0.29744267
0002c0 ce 98 79 3d 01 e6 93 3d 85 b1 e4 bd 18 8f 1a 3e
       0.06093674 0.07221604 -0.11166672 0.15093648
0002d0 71 e8 98 3c 3d f3 1f 3e 36 f9 26 bd 06 4e 98 be
       0.018665524 0.15620132 -0.04076501 -0.29747027
0002e0 3b b8 ba bd d5 17 36 3e e1 0d 9c 3d 0c 90 b0 bc
       -0.091171704 0.17782529 0.07619835 -0.021553062
0002f0 73 35 6e 3e 2f 17 02 3e 9d a9 0b be 09 be 13 3e
       0.23262577 0.12704156 -0.13638921 0.14427961
000300 74 70 21 3d 91 0e bc 3d 93 fb 8f 3d 36 c5 9a 3d
       0.039413884 0.09182466 0.07030406 0.07557146
000310 cf 99 8b 3d 63 11 e3 3d d7 40 26 be 87 2b 69 bd
       0.06816446 0.11087301 -0.16235672 -0.056926277
000320 d7 27 b3 bd 1b 34 0a 3e 75 e7 e4 bd 7d 80 f0 3d
       -0.08747833 0.13496439 -0.111769594 0.11743257
000330 62 ce e1 bc ae a9 a0 3d cf 6a a7 bd 7e f7 aa bd
       -0.027564231 0.07844864 -0.08174669 -0.08347987
000340 50 16 90 3e 51 38 58 bd a4 5c 9c bd c1 15 b1 bd
       0.28142023 -0.052788083 -0.07634857 -0.08646727
000350 0c d1 0d 3e 6f 88 48 be 2b dc 10 3e 5f 28 81 bd
       0.13849276 -0.19583295 0.14146487 -0.06306528
000360 0d f6 29 be b5 42 fd be 2f c9 1f 3d 09 7d d4 3d
       -0.16597767 -0.49464956 0.039010223 0.10375411
000370 a2 6c 34 3e 36 fa c7 bc ab ec a0 bb 6d 1e 05 3e
       0.17619565 -0.024411302 -0.0049110255 0.12999888
000380 a5 81 0b 3e 90 8c 1a be 4c b3 df bd 54 f4 4a 3d
       0.13623674 -0.15092683 -0.1092287 0.049549416
000390 56 b7 8d 3c bb ed 4a bd aa be a8 3d 75 27 29 3e
       0.017299335 -0.049543124 0.08239491 0.16518958
0003a0 59 c3 2e 3e 96 37 fe bd 80 8b 37 3e 15 ca f0 bd
       0.17066707 -0.12412946 0.17924309 -0.11757294
0003b0 03 3e f2 bb e1 c1 11 3e bc 29 16 3e d8 2e 43 3e
       -0.0073926463 0.14234115 0.14664358 0.19060838
0003c0 af 5f 6a 3b 9a d1 0c 3d 3f 5f da bd f6 d3 72 bd
       0.0035762598 0.03437958 -0.10662698 -0.059284173
0003d0 d0 29 92 bc be 46 58 3e 57 f7 25 be c6 17 e8 3d
       -0.017842203 0.21120736 -0.16207634 0.113326594
0003e0 71 98 98 3c ac c7 19 be cc 89 8a 3d ea 8e 57 be
       0.018627377 -0.15017575 0.06764564 -0.21050611
0003f0 46 fe de 3d e2 a1 10 3e f1 64 bc 3b bb 9b 2c bd
       0.108883426 0.14124253 0.005749338 -0.042140704

encoder.layers.0.self_attn.in_proj_bias f4 [96]
000000 e6 6d 03 bd f3 a4 5f 3b 9b 71 09 3b 46 11 6b 3c
       -0.03208723 0.0034125417 0.0020972255 0.01434738
000010 fa 65 88 3c 79 65 42 3d ec 26 8b bd ca e0 cb ba
       0.016650189 0.047460053 -0.06794533 -0.0015554663
000020 a2 36 25 3d 12 ca b8 bb 99 b1 5f bc 41 f6 a1 3c
       0.040335305 -0.005639323 -0.013653182 0.019770743
000030 04 f6 4d 3d 14 42 94 bc 5f dc da 3b 41 54 cc bc
       0.050283447 -0.018097915 0.0066791023 -0.02494252
000040 38 9c 90 3d c8 44 4f 3c 8b bc be 3c 45 b8 10 3d
       0.07061046 0.012650676 0.023283264 0.035331983
000050 93 86 38 bd 80 b5 01 bd 23 be fd bc eb 7b 46 bc
       -0.045050215 -0.031667233 -0.030974453 -0.012114505
000060 bd 30 18 3b 89 de 23 bc 66 88 61 3c c9 30 0a bc
       0.002322241 -0.010001787 0.01376543 -0.008434483
000070 f0 ba 8e 3b d2 96 6c bc c1 b6 0f 3d 84 f7 ee bc
       0.004355781 -0.014440255 0.035086397 -0.029170759
000080 52 45 b1 b7 c8 19 7b 38 86 87 e5 38 c8 b5 a7 36
       -2.1132324e-05 5.9867074e-05 0.00010944814 4.99815e-06
000090 cb cf 44 b9 0b 98 85 b7 91 2a e8 38 5f 4d 36 37
       -0.00018769426 -1.5925636e-05 0.00011070551 1.086606e-05
0000a0 f5 e9 35 3a db 3c 41 39 44 80 a1 38 4f a1 91 39
       0.00069394644 0.00018428585 7.7009696e-05 0.0002777674
0000b0 5b c8 01 b8 e8 6e 48 39 c0 c1 bc 38 07 b9 94 b9
       -3.0942592e-05 0.00019114802 9.000627e-05 -0.00028366616
0000c0 f6 4e 5c b9 10 96 b6 38 48 e9 c2 39 9b 10 df 38
       -0.0002101025 8.7063876e-05 0.00037176372 0.00010636562
0000d0 e8 57 9f 39 64 d5 44 b9 59 50 cf b8 06 d5 08 b8
       0.00030392339 -0.00018771511 -9.885495e-05 -3.262332e-05
0000e0 94 c0 54 39 d7 18 86 b8 12 d5 2c b8 51 37 04 b8
       0.00020289636 -6.394245e-05 -4.1206433e-05 -3.152277e-05
0000f0 62 b6 b7 b8 5d 75 e3 39 34 0c 48 39 5d 87 0c 39
       -8.7600914e-05 0.00043384256 0.00019078032 0.00013401867
000100 10 0f cf bc 19 d6 1c 3c 92 29 d9 bc 28 09 8e bc
       -0.025275737 0.009572529 -0.02650908 -0.01733835
000110 e5 04 02 3c 5e ef 97 3c 85 d0 6a bc b7 3d 89 3c
       0.007935737 0.018546756 -0.0143319415 0.01675306
000120 fd 2f 80 3c 39 25 1b 3c 42 12 8e 3c bf a1 d9 3b
       0.015647883 0.009469324 0.01734269 0.006641596
000130 8a c9 df 3c 9c 36 6c bc 67 fd 77 bc cf 1d e2 3c
       0.027317781 -0.014417317 -0.015136099 0.027602104
000140 9c 55 8d 3c 6d 59 09 bc 9e d3 30 bc df 07 b8 bc
       0.017252736 -0.008383137 -0.010792641 -0.02246469
000150 d8 16 b3 3a a6 ec 0d bd 3c f9 82 bb ce 7c 83 bc
       0.0013663424 -0.034649514 -0.003996996 -0.016050722
000160 55 5f e3 bb 6c 17 03 3b 51 c5 ca 3b b4 7b 06 3c
       -0.0069388547 0.0020002974 0.0061880727 0.008208204
000170 67 26 0e 3d 59 42 87 bc c2 85 50 3c 7d a2 4b 3c
       0.034704592 -0.01651113 0.012727203 0.012428877

encoder.layers.0.self_attn.out_proj.weight f4 [32, 32]
000000 b9 38 04 3d 1d e9 b7 3b 0b 28 80 3d a4 f3 c3 3d
       0.032280657 0.005612506 0.062576376 0.09567955
000010 f3 af 1c bd 45 56 9b 3d 0a ab e6 3d fb d2 56 bd
       -0.038253736 0.07584814 0.11263092 -0.0524473
000020 04 30 92 3d 43 a6 ee 3d ca 3d 25 3e 2b b7 15 be
       0.071380645 0.11652806 0.16136852 -0.14620654
000030 8d de 36 bd ee 27 a1 bd f3 31 bc 3d 34 e6 60 3d
       -0.044645835 -0.07868944 0.091892146 0.05490704
000040 c0 0f 06 3e 6a 64 15 be ee 4f bc bd 4b bf 2a 3e
       0.13091946 -0.14589086 -0.09194933 0.16674535
000050 2d bd 50 3e 67 29 12 3e 6d d4 20 3e 77 fe 25 bd
       0.20384665 0.14273606 0.15706034 -0.04052588
000060 94 48 15 3e 74 74 3a 3d fd d4 66 bd 34 a9 d3 bd
       0.14578468 0.045521215 -0.056355465 -0.10335007
000070 47 bf d6 bc 48 87 e4 3d 58 6c 7b bd 24 59 14 3e
       -0.026214255 0.11158615 -0.06138262 0.1448713
000080 26 68 c2 bc 7e a7 cf bd 19 ca e8 3d 59 66 49 bd
       -0.023731302 -0.101393685 0.11366672 -0.049169872
000090 a5 d9 a0 3d 98 5e 88 3d 6b f1 83 3d 79 7a f0 3d
       0.078540124 0.06658667 0.06442531 0.1174211
0000a0 52 b6 68 bd a0 c2 0e 3e 5d 4e 99 3d b9 c6 5b 3c
       -0.0568145 0.13941431 0.0748565 0.013414078
0000b0 dc d7 69 bd 16 eb 6b 3c f7 ae e8 3d 05 5e 54 bd
       -0.057090625 0.014399311 0.11361497 -0.051847477
0000c0 04 12 23 bd 54 f4 14 be bd a6 de bb 4f 58 dd bd
       -0.039812103 -0.14546329 -0.006794779 -0.10807859
0000d0 ed ad 0a 3e 14 00 82 bd c6 47 ee 3b 3a 0d 0a 3e
       0.1354291 -0.06347671 0.0072717397 0.13481608
0000e0 85 02 30 bc 85 7e 5f 3e 5f 15 3d 3e 82 eb c6 3d
       -0.010742788 0.21825607 0.18465184 0.09712888
0000f0 53 6d ed bd 2a 31 29 bd ee 61 f0 bd 01 ab 20 be
       -0.115931176 -0.041306652 -0.117374286 -0.15690233
000100 0a 62 fb 3d b1 5e e2 bd 55 61 a8 3d 9b 46 5c bd
       0.12274559 -0.11053217 0.082216896 -0.053778272
000110 d0 c3 08 bd a3 08 a9 bd e7 ef f8 3c cc 30 b2 3d
       -0.033389866 -0.082536004 0.030387832 0.087007135
000120 68 da bf bc 1c c7 d7 3c ed 85 52 3e d5 c7 da 3d
       -0.023419574 0.02634006 0.20558901 0.10682646
000130 d6 77 20 be 07 30 09 be b3 3f b0 3c 13 a2 0b bd
       -0.15670714 -0.13397227 0.02151475 -0.034090113
000140 0e 57 01 be 32 5f 29 bd b4 81 46 3e a0 f9 c7 bc
       -0.12630865 -0.04135055 0.19385415 -0.024411023
000150 01 ba 86 bd 9f 0b e7 3d 48 87 56 3e 75 94 02 be
       -0.06578446 0.112815134 0.20950043 -0.12751944
000160 5b 54 bf 3d 60 7c 4d 3e 89 f9 18 3e fd 44 9e bd
       0.093422614 0.20066977 0.1493894 -0.07728002
000170 f7 77 d9 3d 88 52 8c bd a0 d7 f3 bd 51 ad 19 3e
       0.106185846 -0.06851679 -0.119063616 0.15007521
000180 64 19 39 3e 92 2c d5 3d 47 fa 9e 3d 23 06 3b 3c
       0.18076092 0.10408892 0.0776258 0.011415037
000190 ce 24 c7 3c d9 5f d9 3d 64 bf e1 b9 75 81 07 be
       0.024309542 0.106139846 -0.0004305794 -0.13232978
0001a0 3e 2e 0d 3e d2 b1 06 be 32 7c 47 bd 98 3c 35 3d
       0.13787171 -0.1315377 -0.048702426 0.04424724
0001b0 33 14 29 be db 58 00 be e6 1a 5e 3d 75 0d b0 3d
       -0.16511612 -0.12533896 0.05422487 0.08596317
0001c0 0a fc 6d 3d 42 29 9c 3d 88 1d e9 3b 68 b9 0a 3c
       0.05810169 0.07625057 0.007114116 0.008467056
0001d0 44 80 fc ba 11 c5 ad 3c df d9 71 bd 84 d7 b7 bd
       -0.00192643 0.021212133 -0.05904567 -0.08976653
0001e0 84 4b a4 bd 0e 4b 0b be 51 61 e5 3d 24 0c 0d be
       -0.08022216 -0.1360285 0.11200202 -0.13774163
0001f0 23 cd 2a be 71 2d b4 bd e0 b2 91 3d fe 37 17 be
       -0.16679816 -0.0879773 0.07114196 -0.14767453
000200 27 91 d8 bd fc 9a 9e 3d 30 24 74 3d 3c 93 a8 bd
       -0.105745606 0.07744405 0.059604824 -0.08231208
000210 c8 66 0f 3e 7e b5 bf bc 16 68 5c 3d 69 a3 d0 3d
       0.14004052 -0.023401972 0.0538102 0.10187418
000220 fb e8 2c be 77 42 f0 bd de 34 f3 3d a2 60 e3 bc
       -0.1688575 -0.11731427 0.11875318 -0.027756039
000230 ab d7 99 bd 61 fd d7 ba 93 83 f9 3d b1 0f 33 3e
       -0.075118385 -0.0016478711 0.12183299 0.17486455
000240 fe 8d be bd 98 8e c0 bc af 64 91 bc c8 af a1 3d
       -0.093044266 -0.023505494 -0.017748205 0.07894856
000250 69 80 1b be 43 38 2d 3e c7 3f c7 3c 9c ee 81 bd
       -0.15185703 0.16915993 0.024322404 -0.06344339
000260 a0 fd c4 bb fc 86 9b bd 57 55 ac 3d 68 01 cb bd
       -0.00601168 -0.075941056 0.08414715 -0.099123776
000270 69 e2 a7 bc f4 60 e0 3d 2a b7 01 3e 3b 9f a8 3d
       -0.020493703 0.10955992 0.12667528 0.08233496
000280 e2 10 ce 3d da 49 da 3c 79 37 a7 bc c4 63 1d be
       0.10061814 0.026646543 -0.020412194 -0.15370089
000290 3e 6e 06 3e 25 ed 25 bd ec a2 d5 3c ee 05 06 3e
       0.13127992 -0.04050936 0.026078664 0.130882
0002a0 d0 38 d6 bd 7b 38 01 3e 31 ea 64 3d 31 a9 ea bd
       -0.10460055 0.12619202 0.055887405 -0.11458052
0002b0 c5 90 96 3d 48 e7 1b be 94 23 59 3b eb 6e df bc
       0.07351831 -0.15224946 0.0033132778 -0.02727457
0002c0 30 af 58 bd 7f df 9f 3d e2 3f 5d 3e 3f b4 52 3e
       -0.052901447 0.078063 0.216064 0.20576571
0002d0 00 60 8e 3d 4a d9 11 be eb 62 91 3e 7e 6e 70 3d
       0.06951904 -0.14243045 0.2839578 0.058699124
0002e0 83 69 0f bd a0 90 19 3e a4 5f c5 bd ed c5 85 3c
       -0.035012733 0.14996576 -0.096373826 0.01632973
0002f0 98 6d 99 3c 37 c7 29 bc 20 e2 4c 3c eb 04 ca 3d
       0.018729016 -0.010362438 0.012505084 0.09864219
000300 21 c0 16 be 74 a1 05 3e e7 7c 1b be 44 0d 17 be
       -0.14721729 0.1304987 -0.15184365 -0.14751154
000310 c6 38 bf 3b d1 95 31 3d 97 0b 6d bd da 17 d1 bd
       0.0058356253 0.043355767 -0.05787238 -0.102096274
000320 0f 6f 02 3e 8f 20 2b bd df 29 4e bd 0a 00 d0 3d
       0.12737678 -0.041779097 -0.0503329 0.101562575
000330 61 10 08 be a7 fc 1c 3c 04 43 3f bd cd 78 98 bd
       -0.13287498 0.009581721 -0.04669477 -0.07444916
000340 95 bc e1 bd 7d 54 0e 3d c0 51 cf bd 39 d1 02 be
       -0.11022297 0.034748543 -0.101230145 -0.12775125
000350 69 45 d3 bd db a5 28 3e 2a f2 e5 bd b7 44 06 be
       -0.10315973 0.16469519 -0.1122783 -0.1311215
000360 f2 53 2f 3d 65 a6 00 3b 2a 9c c2 bd 35 a9 ab 3d
       0.042804666 0.001963043 -0.09502442 0.08381883
000370 b7 3d 0a be bc cd 1e be c5 af 07 be 8c a7 52 bd
       -0.13500105 -0.15508169 -0.13250645 -0.051429316
000380 21 5e ec 3d 11 7e a0 3d 2c 3f 04 3d 0f e1 a5 bd
       0.11541391 0.07836545 0.032286808 -0.08099567
000390 7d bd 0c be 4c d9 41 be 03 b9 a7 3d 54 3a 65 3d
       -0.13744159 -0.18930548 0.08189585 0.05596383
0003a0 e1 e2 c0 3d ba e8 cb 3d 52 5f 93 bd ca 72 3b be
       0.09418274 0.099564984 -0.07195915 -0.18305507
0003b0 50 93 85 bd 51 04 3e be 98 5c c1 3d 3a 49 f4 bd
       -0.06522238 -0.18556334 0.09441489 -0.11928029
0003c0 26 a3 7a 3d eb 25 f3 bd a0 74 55 bc 29 20 ee bd
       0.061190747 -0.11872467 -0.013028294 -0.11627228
0003d0 b3 68 3a be 6e ac 9c bd b5 19 f5 3c 45 0a eb 3d
       -0.18204002 -0.07650076 0.029919485 0.11476568
0003e0 8e 89 48 3d 18 02 8a bc 2f 2d 4e bd 2d ed 0d 3d
       0.048959307 -0.016846702 -0.05033606 0.034650017
0003f0 91 a6 fc 3c f0 fb a9 bd c9 79 0d 3e b0 29 20 be
       0.030841144 -0.083000064 0.13815989 -0.15640903

encoder.layers.0.self_attn.out_proj.bias f4 [32]
000000 a0 a7 a3 bb 92 4d 19 bc d4 b6 ba 3b c8 e3 57 3c
       -0.0049943477 -0.009356873 0.0056980643 0.013176866
000010 82 67 d7 bb 36 a0 c6 3c 50 56 64 bc b1 a0 0e bc
       -0.0065736184 0.024246316 -0.013936594 -0.008705304
000020 58 28 01 3c 92 7f 51 3c 81 ad 3a bb 74 6c bf bb
       0.007883154 0.012786763 -0.0028484764 -0.005841786
000030 97 c2 30 bc 9d dc a8 3c ca 43 bd 3a 7a 38 20 3c
       -0.010788581 0.02061301 0.0014439758 0.00977909
000040 bf f3 3e 3b f3 69 59 ba ea c4 3c bc 37 1e c2 bb
       0.0029136983 -0.0008293681 -0.011521557 -0.005924012
000050 c6 ce 0f 3b a6 21 b8 bc 8f 7e c8 3b 6e 70 e7 bc
       0.0021943315 -0.022476982 0.0061186026 -0.028251853
000060 89 bb 29 bc 96 94 bf bc 57 09 45 bc 92 d0 ab bb
       -0.010359653 -0.023386281 -0.012026153 -0.0052433694
000070 b2 ac 9a bc 33 25 91 bb c8 5b a9 3c b4 27 93 39
       -0.018881176 -0.0044294833 0.020673648 0.00028067606

encoder.layers.0.linear1.weight f4 [1024, 32]
000000 c1 f2 e8 3d 7f ab 9f bd bb c4 ba 3b 82 39 c9 3d
       0.11374427 -0.07796382 0.0056997216 0.09825422
000010 87 52 ed bd 2b 10 b2 bd a7 51 92 bd 5c 17 09 be
       -0.115880065 -0.0869449 -0.0714448 -0.13387817
000020 b1 25 b4 3c 5e 70 ac bb 98 96 06 bc 1e a5 ce 3d
       0.021990629 -0.0052624187 -0.008214615 0.10090087
000030 ac 2a e7 bc 70 ed 07 bd 12 3e 22 be 93 55 8a bd
       -0.02821859 -0.033185422 -0.1584399 -0.06754603
000040 2c e5 25 3e 42 2e bd 3d 06 e9 48 bd de dd 33 3c
       0.16200703 0.092373386 -0.049050353 0.01097819
000050 56 9a b5 3b df 97 f5 3c 97 0e 49 be b7 1d dd 3d
       0.00554208 0.029979644 -0.19634472 0.10796683
000060 bb b9 35 3d 8d aa 48 bd e9 0d 13 be 3b b4 d6 bd
       0.04436658 -0.048990775 -0.14360775 -0.10483595
000070 e3 0c e3 bd b6 4f b9 3d fc 6e 8a bd 08 a9 e2 3a
       -0.11086442 0.09048407 -0.0675945 0.0017292807
000080 dc a4 ae bd 41 fc 2d bc df 2d b3 bd 75 73 e0 3d
       -0.08527538 -0.010619224 -0.087489836 0.10959522
000090 1f 3b a8 bd 8a 77 a3 3b 97 1b d6 3b 47 a3 f9 bd
       -0.082144015 0.0049886154 0.0065340507 -0.12189346
0000a0 7e 38 20 be 75 c1 f3 3d 67 d1 02 3e ff 59 8d 3d
       -0.1564655 0.119021334 0.12775193 0.06901931
0000b0 d9 c6 a7 3c 47 da 17 3d 08 c6 0e be b7 43 6b 3d
       0.02048056 0.0370734 -0.1394273 0.057437625
0000c0 46 4e 02 be 91 36 d7 bc d7 1d 11 3d 50 66 0f 3e
       -0.12725171 -0.026271136 0.035428848 0.14003873
0000d0 61 38 f5 bd 2c 0e 92 bc b7 96 1a bd 83 1b c3 bc
       -0.11973644 -0.017829023 -0.03774139 -0.02381683
0000e0 d3 0b 67 3d 29 d3 c5 3c 00 63 d1 bd f3 b9 96 bd
       0.05640776 0.02414854 -0.10223961 -0.07359686
0000f0 fb 19 7e bd d1 d7 d7 bd 71 93 2f 3c a3 23 b5 bc
       -0.062036496 -0.105392106 0.010716305 -0.02211172
000100 70 05 4a 3e 56 1f b3 3d e1 44 c3 bd db 9b 9c 3c
       0.19728637 0.08746211 -0.09534622 0.019117286
000110 0b 7b 30 3d 5a c0 a7 3c 78 f2 06 3e 89 e7 b0 3d
       0.043086093 0.020477463 0.13178432 0.08637912
000120 87 fe 0c be 09 2d f6 3d dd b4 45 3e 18 8c 00 3d
       -0.1376897 0.120203085 0.19307275 0.031383604
000130 1e 63 b9 bd b3 ee 5a 3d e9 6b 08 be 39 99 11 be
       -0.09052108 0.053450298 -0.13322414 -0.14218606
000140 c4 78 3e 3e 4f 6b 1b bc bc f0 07 3e 98 74 1c be
       0.18600756 -0.009486034 0.13275427 -0.15278852
000150 40 db e4 3d 02 82 b4 bd f6 1b 8b bc bd 2a 1f be
       0.11174631 -0.088138595 -0.016981106 -0.15543647
000160 c4 9b b4 bd 54 0d de bd 29 af fc bd 69 7c 99 bc
       -0.088187724 -0.10842386 -0.12338097 -0.018736081
000170 60 8f 49 be 3e d1 aa bc 7a 38 d0 3d a3 a4 5c be
       -0.196836 -0.020851728 0.10167022 -0.21547179
000180 f9 84 07 3e 68 22 53 bd e8 a8 25 3d 87 78 89 bd
       0.13234319 -0.051546484 0.040444285 -0.06712442
000190 ee ab 2b 3d af 8d f0 3b 1e 7d 41 bc b4 07 d0 bc
       0.04191201 0.0073411088 -0.011809615 -0.025394298
0001a0 40 95 e4 bd fa 30 f5 3b 76 44 e3 bd 3a 57 08 b9
       -0.1116128 0.007482645 -0.11097042 -0.00013002465
0001b0 24 d7 e4 ba d5 aa 1f 3d a1 8f 68 3d 31 f1 2c bd
       -0.0017459136 0.038981277 0.0567776 -0.042222206
0001c0 20 8c d7 bd bc 8b 0c be e1 0f f1 3d 36 5e c7 bd
       -0.105247736 -0.1372518 0.11770607 -0.09734766
0001d0 e9 0e 65 3d 38 0a 41 3d de 98 0f 3e 73 6b 1d 3d
       0.055922423 0.047128886 0.14023158 0.03843255
0001e0 dd 43 67 3e 26 1d c4 3d 4d 09 a7 3d 4b 6a 39 bd
       0.22584482 0.09575872 0.08156071 -0.045267384
0001f0 16 65 4a be 3d cc 09 bd 40 12 0e 3e 5c 0f 9b be
       -0.19765124 -0.033642042 0.1387415 -0.30285156
000200 38 83 80 3d c8 0b 03 bd 1c 4d 98 bd 55 71 82 bd
       0.06275028 -0.031993657 -0.074365824 -0.063692726
000210 a2 9d d3 3c f1 7d eb 3d 89 aa 40 3d 52 31 5c bd
       0.025832001 0.11498631 0.047037635 -0.053757973
000220 97 20 e3 3d 7f a8 03 3e 80 e8 68 3d f1 a2 f9 3d
       0.110902004 0.12857245 0.056862354 0.12189282
000230 52 fd 29 3d 4d a5 de 3d fc 0b 68 3c 83 cc 16 3d
       0.04150135 0.10871372 0.014163014 0.03681613
000240 fa 95 0d be b5 55 c7 3d 6b 0b c9 3c ae 86 10 3e
       -0.13826743 0.09733144 0.024541577 0.14113876
000250 84 d6 d3 bd a0 ed 99 3d 96 fa f0 bd 28 5a 5a bc
       -0.1034365 0.075160265 -0.117665455 -0.013327159
000260 a7 94 c7 bc c9 d0 4a bd 48 bf 98 3d e8 dc 56 3d
       -0.024362875 -0.04951552 0.07458359 0.052456766
000270 1a bc cb 3c 7f f6 2f be 07 49 4e 3d 39 9d b2 bd
       0.024869967 -0.17183875 0.050362613 -0.08721394
000280 fc a5 d5 bd b9 24 64 bd a8 51 87 bc 3b 0d e9 3d
       -0.1043205 -0.055699084 -0.016518429 0.11379477
000290 83 66 1b bd cd 59 11 bd f8 71 de bc be 62 3c bb
       -0.03793956 -0.03548603 -0.027153954 -0.0028745378
0002a0 7e bf d1 3d 2c f9 00 be ce fb 46 bd 4e 91 01 3c
       0.10241602 -0.12595052 -0.048579983 0.0079081785
0002b0 f9 fc d0 3d 70 5f e5 3d 16 5a 2a 3d 05 14 0e 3e
       0.10204501 0.11199844 0.04158982 0.13874824
0002c0 e7 68 0b 3e be 96 d0 3d 97 18 2a 3d 8b 0e 13 3e
       0.13614236 0.10185002 0.041527357 0.14361016
0002d0 f4 b0 80 bd 2b b6 18 bd 64 28 c5 bc c3 7f bf bd
       -0.06283751 -0.037283104 -0.024067111 -0.093505405
0002e0 dc 82 56 bd de 47 32 3d 0d 45 8c 3d 37 35 ff bd
       -0.05237089 0.04352557 0.06849108 -0.12461322
0002f0 2f 99 cf 3d 62 4c ba 3d 2b ae dd 3b ac 6a 8b 3e
       0.10136639 0.090966 0.006765147 0.27229822
000300 40 1f 9a bd b5 e3 34 3e cd a0 88 3d 8e ae e4 bd
       -0.07525492 0.17664988 0.06671295 -0.11166106
000310 74 87 30 be 87 84 96 bd 5b d9 96 3d df e2 6b bd
       -0.17239171 -0.07349496 0.07365676 -0.057589408
000320 68 08 2a be a6 f7 07 39 86 2e 36 3e 03 cb d8 bd
       -0.16604769 0.0001296686 0.17791185 -0.105855964
000330 79 7c e3 bd 83 ef 99 3d a9 7f 09 be a1 97 21 3d
       -0.11107726 0.07516386 -0.13427605 0.039451245
000340 5b 9d d3 3d 51 66 4d bd 40 9d 12 be 14 af 65 3d
       0.103327475 -0.050146405 -0.14317799 0.05607517
000350 3a 4b f9 bd cb f6 56 bd ca 1c e5 3d 61 da 17 3e
       -0.121725515 -0.052481454 0.11187132 0.14829399
000360 c5 4b 08 3e f1 e4 4a bd 55 a6 98 3d 30 2e a4 3d
       0.13310154 -0.04953474 0.074536 0.08016622
000370 1d 0e ed 3d 7d 54 17 be fc 92 46 3d b6 1b 24 bd
       0.115749575 -0.14778323 0.04848002 -0.04006549
000380 2b 44 c2 3c aa 47 65 3d 5d 16 38 bc ae 19 0e 3d
       0.023714146 0.055976547 -0.011235801 0.03469246
000390 61 f9 22 3c df 90 df 3d 18 4d 9c 3c 40 58 6b 3d
       0.009947152 0.10916304 0.01907973 0.05745721
0003a0 a3 08 9b bd bd 9d 3f 3d ab de 85 bd 49 10 bc bd
       -0.07570007 0.04678129 -0.06536611 -0.09182794
0003b0 13 0c a4 bd d5 a8 40 bc 99 f8 c2 3c 20 7e ca bc
       -0.080101155 -0.011759003 0.023800181 -0.024718344
0003c0 1e 04 3a 3d 99 48 7d 3d 13 c7 e6 3c b8 bc a5 3d
       0.045414083 0.061836813 0.028171098 0.08092636
0003d0 84 9d a0 3b 37 74 16 3d 48 4d e3 3c c0 52 9c 3d
       0.00490159 0.036731925 0.027746812 0.07632971
0003e0 1d bc b6 bb d5 37 41 3e d9 51 77 3d 8d f0 76 3c
       -0.005576624 0.18868954 0.06038079 0.015072
0003f0 29 3a 85 bd bf 2f cd bd 3e a6 53 bc 1f f2 9a be
       -0.06505234 -0.100188725 -0.012918053 -0.3026285

encoder.layers.0.linear1.bias f4 [1024]
000000 84 15 06 be 71 25 e1 bd 62 df e0 bb df 82 2f 3d
       -0.13094145 -0.109934695 -0.006862567 0.042849418
000010 cf 45 10 be 38 ab bc 3d 6b 9e c0 3d d4 23 ef 3d
       -0.1408913 0.09212345 0.09405216 0.116767555
000020 c6 a1 3c 3d e6 4b 45 3c 75 0b a8 3d ff e4 dd bd
       0.046052717 0.012042021 0.0820531 -0.10834693
000030 02 93 2f be 21 16 ba bd 63 dc 7b 3d ec 4e bb 3c
       -0.17145923 -0.09086252 0.061489474 0.022864781
000040 8d a7 29 3d 88 b2 8a 3c f0 b7 2c bd 27 5b bd 3d
       0.041419555 0.016930833 -0.042167604 0.092459016
000050 4a 6c 02 be 0c a1 4e be 27 ef ac bd 61 89 29 bd
       -0.12736621 -0.20178622 -0.08444052 -0.04139078
000060 f6 5a 12 3d da 8f 8c bc d2 69 34 be 64 b2 c9 bd
       0.03573128 -0.017158438 -0.17618492 -0.098484784
000070 02 f9 bd 3d 8c 10 50 be f5 f1 b8 bd 7f 96 90 bd
       0.0927601 -0.20318812 -0.09030525 -0.07059955
000080 87 17 87 bd 1f 0d 7c bb 69 be 86 bd 79 91 2e be
       -0.06596284 -0.003845997 -0.065792866 -0.17047681
000090 e9 83 6c 3d c9 46 eb 3d 3e 8a 24 3d 58 8a 9d bb
       0.057742987 0.114881106 0.0401709 -0.0048077516
0000a0 12 67 6b bd e5 2c 04 be ba a3 65 bc da 77 7a bd
       -0.057471342 -0.12907751 -0.014016086 -0.061149456
0000b0 e2 83 46 be 86 0c 0f be b4 2a c2 bc e6 68 42 3c
       -0.19386247 -0.13969621 -0.023702003 0.01186583
0000c0 05 f6 75 bd 2a c0 1b be 64 83 b3 3d 7c cb 3e 3c
       -0.060049076 -0.15210024 0.08765295 0.011645194
0000d0 08 c8 b6 bd 55 38 15 be 3d f7 47 be 8d 0f 96 3d
       -0.08924872 -0.1457227 -0.19527908 0.07327185
0000e0 c4 6c 82 3d 94 c8 32 3d 5a 35 d0 3d 6b 75 39 be
       0.06368402 0.043648317 0.10166426 -0.18111198
0000f0 a1 87 57 3c 2f 8f 05 bd 83 77 c3 bd 1b 9b a7 3d
       0.013154895 -0.032607254 -0.095442794 0.08183881
000100 56 9e aa bd 6a 3a 17 be a9 f9 e3 bd ed 60 53 be
       -0.083309814 -0.14768377 -0.11131603 -0.20642443
000110 b3 24 e3 3c 31 2c ab 3c 9e 28 bc bd 06 43 a0 3d
       0.02772746 0.020895096 -0.091874346 0.07825284
000120 88 cb b1 3d 3c 3c 04 be 20 5b 9f 3d a1 05 c5 bd
       0.08681399 -0.12913603 0.077810526 -0.09620214
000130 84 4c f2 3d 85 2c 45 be 4c d0 34 3d ab a9 0c 3e
       0.118310004 -0.19255264 0.04414396 0.13736598
000140 fb 70 19 be fe 39 ad bb 41 82 4e be 0a d6 f8 bd
       -0.14984505 -0.005286454 -0.20166875 -0.121502
000150 77 22 00 be 17 81 d8 3d 94 dd b7 3d 06 1a 12 be
       -0.12513147 0.10571497 0.089778095 -0.1426774
000160 46 60 35 3a c6 fc 0b be c3 18 20 bd 1a 38 c1 3b
       0.0006918948 -0.13670644 -0.039086115 0.0058965804
000170 f6 0c cd 3c 5d 83 3d be ef fa f7 bd dc fb ca 3c
       0.025030594 -0.18507142 -0.12108409 0.024778299
000180 51 25 36 bd da c5 04 bd 8d a9 b1 3c 6d f2 21 bd
       -0.04446918 -0.03241525 0.021687293 -0.039537836
000190 6f 5b 85 bd c9 93 c4 3d c1 28 39 bd e6 c9 0a 3d
       -0.0651158 0.095985 -0.04520488 0.03388395
0001a0 26 0b fe bc cd af 07 3d 2e ee a9 bd 9a 6e 10 be
       -0.031011175 0.03312664 -0.08297382 -0.14104691
0001b0 09 38 9b 3d 44 7b d2 3d de c3 04 be ee 6a 9c bb
       0.07579047 0.10277417 -0.12965342 -0.004773489
0001c0 0a 61 1f be 6d 70 58 be bf 4c bf 3c 88 a4 fb bd
       -0.15564361 -0.21136637 0.023352025 -0.12287241
0001d0 f0 b1 1e 3d 80 56 bd bc 0e c8 6e 3d 01 12 4c be
       0.038743913 -0.023112535 0.058296256 -0.19928743
0001e0 60 5f c9 3d 1a 08 26 be 8e ad 63 bc ac 2e a6 3d
       0.098326445 -0.16214028 -0.013896359 0.08114371
0001f0 97 37 14 3d 58 a9 eb 3d 49 8a 06 3d 1e a7 12 be
       0.036185827 0.11506909 0.032846723 -0.14321563
000200 7a ac 24 bd 77 97 45 be 33 da 33 3c 22 d5 52 be
       -0.04020355 -0.1929606 0.010977316 -0.20589116
000210 d9 cd 39 3b 14 6e 22 be 16 ed 80 bd ae ea 81 3d
       0.0028351455 -0.15862304 -0.062952206 0.0634359
000220 1d e1 9b 3d ae d1 e7 bc 25 e8 e6 3d a2 d9 9a 3d
       0.07611296 -0.028298225 0.11274747 0.075610414
000230 fc df 34 3c f5 19 ab 3d c8 e8 ef bd ab 5a 8f 3c
       0.01103973 0.0835456 -0.117143214 0.017499289
000240 34 2d 2c be e6 ff ca 3c 42 c9 c9 bd ba 26 54 3d
       -0.16814119 0.024780225 -0.0985284 0.051794745
000250 84 d7 89 bd cd ec 8e bd 69 78 3d bd 99 00 2b be
       -0.067305595 -0.0697876 -0.04625741 -0.16699447
000260 a2 41 ce 3d 63 4e 02 be a9 af 04 3d 22 41 d3 3d
       0.10071112 -0.12725215 0.032394085 0.103151575
000270 54 ac 11 bd 3d e9 66 bd 33 db 25 be b8 95 47 bd
       -0.035564736 -0.056374777 -0.16196899 -0.048726767
000280 f6 08 51 bd e8 9a 20 bd ce e5 0e be 95 da b0 bd
       -0.051033936 -0.03921023 -0.13954851 -0.08635441
000290 e9 da bf bd c0 e3 90 bc 2a f3 a7 3c b5 fa 4f bd
       -0.09367926 -0.017686725 0.020501692 -0.050776202
0002a0 4f 19 12 3c 3a 0b 94 3d 43 22 59 3d 7d 02 60 bd
       0.008917167 0.07228704 0.05301119 -0.054689873
0002b0 a7 68 1c bd 86 3f c3 3c 0d f8 bc bd bb 75 12 be
       -0.03818574 0.023834001 -0.092269994 -0.14302723
0002c0 84 3e 13 bd ab 90 f7 bd 11 ae 13 bd 6d 9f 60 be
       -0.03594829 -0.1208814 -0.036054675 -0.21935816
0002d0 90 f8 f6 bc dc d6 b0 bd 86 05 87 3d 0c c2 2f be
       -0.03014782 -0.08634731 0.065928504 -0.17163867
0002e0 67 c9 13 be 37 8e d1 bd 18 a1 05 be 76 d0 a6 bd
       -0.14432298 -0.102322035 -0.13049734 -0.081452295
0002f0 46 cb 65 bd 86 c3 ac bd 61 c9 8a bc d8 24 56 bd
       -0.05610206 -0.08435731 -0.016941728 -0.05228123
000300 b9 be d3 3b 5c 85 17 bd c8 d5 20 be ad fa 8b bd
       0.006461945 -0.036992416 -0.15706551 -0.06834922
000310 80 9b e1 3d 1c 10 57 be 5c 9f 2a 3d dd c1 de 3d
       0.110159874 -0.21002239 0.041655883 0.1087682
000320 94 f8 2f bc 22 c2 c2 bd eb 5a 1b be a6 6f c2 bc
       -0.010740418 -0.09509684 -0.15171401 -0.023734879
000330 06 df 42 bd cf b3 95 bd 85 62 d1 bd c8 27 0a be
       -0.047575973 -0.073096864 -0.10223869 -0.13491738
000340 ab 97 e8 3d 50 f4 aa 3c 42 97 83 bd af ce 17 3d
       0.11357053 0.02086845 -0.064253345 0.037062343
000350 a8 bc 9d 3c d5 ec bc bc af 87 09 3d b4 61 68 bc
       0.019254997 -0.023062149 0.033576664 -0.0141834505
000360 97 fc 3c 3d 64 2d 4e be 7a 00 73 3d 9e 13 77 3d
       0.046139326 -0.20134503 0.059326626 0.060321443
000370 5b e4 1a be 76 cc aa 3c b6 19 90 bd 02 7b 2d be
       -0.15126173 0.020849448 -0.07036154 -0.16941455
000380 f1 53 ad bc ab 9a aa 3c 56 1c a9 3b 79 00 10 bd
       -0.02115819 0.020825705 0.0051608486 -0.0351567
000390 be 07 68 be 6b 59 d1 bc 80 20 7b 3d 78 4f 75 bd
       -0.22659203 -0.025555333 0.06131029 -0.05989024
0003a0 9c a7 c0 3d dd 02 2b be 96 ba 54 be cc 56 64 3d
       0.09406969 -0.16700311 -0.20774302 0.05574684
0003b0 c7 95 37 be d1 cd e5 3d 56 28 09 be 35 1f 89 bd
       -0.1792823 0.11220897 -0.13394293 -0.066954054
0003c0 b6 ab 09 3c 09 6a b1 bd 3a 5d 4c be 86 26 14 3e
       0.0084027555 -0.08662803 -0.19957438 0.1446782
0003d0 f2 45 b9 bd 62 ad 47 bc f4 10 d9 3d 0f ef 84 bd
       -0.09046544 -0.012187334 0.10598937 -0.06490909
0003e0 ca 00 42 be b8 c6 0f 3d c4 f1 98 bd 47 76 29 bb
       -0.18945614 0.035101622 -0.07467988 -0.0025857852
0003f0 5e 81 e1 bd 8e 14 d3 3d 89 d6 29 bd 37 a2 a9 3d
       -0.11011003 0.10306655 -0.041464362 0.08282893

encoder.layers.0.linear2.weight f4 [32, 1024]
000000 a3 f4 87 3c c3 22 f0 bc ed 8c 64 3b 0c 16 e1 bc
       0.016596144 -0.02931345 0.0034874037 -0.027476333
000010 da f1 d6 3b d6 9c d0 bb 63 a5 f2 3a 8e 79 9a bc
       0.0065595927 -0.0063663526 0.0018512424 -0.01885679
000020 12 e7 30 bb 9c e0 a3 bd 6d 11 50 bc eb bb 44 3c
       -0.0026993197 -0.08001825 -0.012699467 0.012007694
000030 0a c9 a4 3a 86 ec 4d 3c f0 1c b0 3b a3 50 0a 3d
       0.0012572121 0.012568599 0.0053745434 0.033768307
000040 90 3e f2 bc 96 29 93 bc 1f b0 02 bd 7f 2a d4 3c
       -0.029570848 -0.017964166 -0.031906243 0.02589917
000050 ea 56 13 bd f1 fb 63 3c f2 39 b6 bc e2 32 c4 bc
       -0.03597156 0.013915048 -0.022244427 -0.023950044
000060 60 09 2e bc ee 99 a1 3b 9b d1 b5 3c 8c 0d 23 3d
       -0.010622352 0.00493168 0.022194674 0.03980784
000070 ea c4 e3 bc 19 72 9a 3c c3 bf b6 bc f3 48 bd bc
       -0.027803857 0.018853234 -0.022308236 -0.023106074
000080 53 54 e1 3c fa 73 95 3c 78 6c 11 bc f0 a2 b1 bb
       0.02750603 0.018243778 -0.008875959 -0.005421035
000090 7e 55 36 bc c4 7a 8a bc a6 71 38 bd 57 47 2e 3c
       -0.011128781 -0.016904242 -0.04503026 0.010637126
0000a0 0d 25 a3 3c c6 29 14 bd 32 3c 51 bc df 9e cf 3a
       0.019915128 -0.03617265 -0.012770699 0.0015840194
0000b0 3b 35 3f 3d 97 7d 1b 3c f2 34 c8 3c d7 a0 c4 bc
       0.046681624 0.009490392 0.024439309 -0.024002476
0000c0 ee 0c a0 3c d8 ed ca bc 64 92 e1 3c 47 c6 85 3d
       0.019537415 -0.024771616 0.027535625 0.06531959
0000d0 2c 83 b5 bc 91 2a ed bb 38 33 5c bd cd 20 da 3c
       -0.022157274 -0.0072377403 -0.053759784 0.026626969
0000e0 1c fa 84 3c b9 26 5f 3b d6 93 54 ba 4f 60 9a 3c
       0.016232543 0.003405018 -0.00081091875 0.018844752
0000f0 05 a4 3e 3d 93 30 34 bc e6 1b a6 bc f1 4a 89 bc
       0.04654314 -0.010997909 -0.020276975 -0.016759368
000100 ad bc 27 bc 8b d7 b5 3c 96 3b 56 bc 09 5b 77 bc
       -0.010237855 0.022197505 -0.01307573 -0.015097388
000110 77 f7 ed 3c fc e6 a0 3c 86 6a 07 3d 50 1e df bc
       0.029048664 0.019641392 0.033060573 -0.027236134
000120 08 b0 f7 ba 13 0d 1e bd 74 f8 a0 bc 5c 23 ce ba
       -0.0018897066 -0.038586687 -0.019649722 -0.0015727091
000130 ab a1 fb bb 41 ad 94 bc 90 a1 c2 3c 12 97 fa bc
       -0.0076791844 -0.01814902 0.02375868 -0.030589614
000140 7e 40 ff 3b 72 de a0 3b 91 5e 4c 3c 7c 7d 11 3b
       0.0077896705 0.00490933 0.012473718 0.0022200039
000150 39 0d ab bc df c1 52 3c 70 51 ad bb 7b 6a 80 3c
       -0.020880328 0.012863605 -0.005289249 0.015675774
000160 63 bc a8 bc 9d 23 49 3c f0 13 c8 bb ac 23 27 3c
       -0.020597642 0.012276557 -0.0061058924 0.010201376
000170 1f 3b 96 ba 0c 73 5e 3c 36 57 f2 3c a4 3c 0a bc
       -0.0011461711 0.013577234 0.029582601 -0.008437309
000180 de 11 90 3c 19 c3 16 bc c7 58 55 bc d3 16 9f 3c
       0.017586645 -0.009201788 -0.013021654 0.019420063
000190 53 b0 00 bd 2f 0a 98 3c 0e f4 d6 3a e1 e0 fc 3c
       -0.031418156 0.018559543 0.0016399638 0.03086895
0001a0 8a 4c c2 bc 7e a7 31 ba 0b 64 2a bc ad 63 3d 3d
       -0.023718137 -0.00067769724 -0.010399829 0.046237636
0001b0 79 07 9b bc 20 21 e4 bb c9 cb 1b 3d ca fa d7 bb
       -0.018924462 -0.0069619566 0.03803614 -0.0065911757
0001c0 b2 0a 60 3c ab c1 7f 3c ce bc b1 bc 9e 59 2e bb
       0.013674425 0.015610139 -0.021696474 -0.002660371
0001d0 12 62 97 bb 8c 05 19 3c 28 af b7 3c d1 72 9b bb
       -0.004619845 0.009339701 0.022422388 -0.004743912
0001e0 b9 b0 53 bc c8 5e 2c bc 77 d2 07 ba 79 5e 16 3d
       -0.012920552 -0.0105206445 -0.0005181203 0.03671119
0001f0 cd 03 13 3c 3e cd 04 3c e7 37 8b bc 7c 6a 42 3a
       0.008973074 0.008105574 -0.01699443 0.000741638
000200 19 e2 7f 3c 66 d2 2c bc d9 d3 cf 3b c7 ca e7 3c
       0.015617871 -0.01054821 0.006342393 0.028294934
000210 3f 32 18 bd 9a 8b 1c bc 5a 0a a4 3b e7 a0 19 bb
       -0.037157293 -0.009554768 0.005006117 -0.0023441853
000220 86 90 13 bc 65 ac d2 bc 46 f6 fa 3c 58 3a ba bc
       -0.009006625 -0.02571697 0.03063501 -0.022732899
000230 1c 43 a1 3c 2c 41 56 bd fb 9d 56 3d 22 f2 d6 bc
       0.01968532 -0.052308246 0.052396756 -0.026238505
000240 58 cb 37 3c 1e 83 ef bc 85 7f c7 3c 39 5d c4 3c
       0.0112179145 -0.029237326 0.024352798 0.023970233
000250 5f 96 73 3c f2 52 b8 bc 31 7c 0f bc 47 d9 a2 bc
       0.014867394 -0.022500489 -0.008757637 -0.019878997
000260 7c 93 3c 3d 0e b7 98 3c f6 41 fc bd 76 41 b2 3c
       0.04603909 0.018641975 -0.123172686 0.02175973
000270 8e c8 a6 bb 60 bb ae 3c 9e a1 33 bd ae 24 08 3c
       -0.005089826 0.021329582 -0.043855302 0.008309526
000280 f4 11 ed 3c 6d 31 f9 3c 6b 6f b9 bc 28 29 95 bc
       0.028939225 0.030419076 -0.022636136 -0.018208101
000290 49 69 8a 3c c0 df 4a 3c 7f ea d1 3a 32 89 00 bd
       0.016895907 0.012382448 0.001601532 -0.03138084
0002a0 94 be 97 ba 3d 49 17 3c 99 6b 55 3b 27 4c 68 3c
       -0.0011577182 0.00923377 0.0032565354 0.014178312
0002b0 ee 63 08 bd 77 0d 89 3b 33 4e d8 3b 96 69 a6 39
       -0.033298425 0.0041825133 0.006601119 0.00031740655
0002c0 b8 05 1f 3c 08 9d 22 3c 72 d5 1d 3c 52 0d f0 3c
       0.009705953 0.0099251345 0.009633409 0.029303227
0002d0 8c 76 5c bc ba 31 e4 3c 9b db 1e bc 08 d8 eb bc
       -0.013455998 0.027855743 -0.009695913 -0.028789535
0002e0 a7 77 65 bd 37 43 81 bd c3 34 59 3c 3b f3 1c bd
       -0.056022312 -0.06311648 0.013257208 -0.0383179
0002f0 5c e1 06 bd 3d 39 54 3b 2a 97 5b bc 02 da b6 3c
       -0.032929763 0.003238275 -0.01340274 0.022320751
000300 e2 ba 79 3b 1a 11 ba 3c 37 15 cc 3c e0 cb 24 bb
       0.0038105776 0.022713233 0.02491246 -0.0025145933
000310 f8 69 f0 3c 55 60 86 bc fc cf a2 3c 9f e5 a8 bc
       0.029347405 -0.016403357 0.019874565 -0.020617304
000320 55 03 65 bc 44 55 ad 3c ad 2c 25 3d d0 11 1a bd
       -0.013977845 0.021158822 0.04032581 -0.037614644
000330 25 ee 0d 3c ee 1d c5 bc a0 bd 7d bd e8 a6 dd bc
       0.008662735 -0.024062123 -0.06194842 -0.027057126
000340 b5 84 ab 3c e0 e4 89 3c 14 36 cf bc 92 25 97 bc
       0.020937303 0.016832769 -0.025294341 -0.018450532
000350 09 2c f8 3b d9 0e be bb 4b 8e 79 bc 38 4e 97 3a
       0.007573609 -0.00580011 -0.015231679 0.0011543697
000360 08 7e 25 bc 92 e7 96 3c 3d ea c0 3c 2f 8d fc bb
       -0.010100849 0.018420968 0.023549194 -0.00770726
000370 45 eb 6c bc 14 b3 1e bc 05 5d 84 3d 34 e6 99 bd
       -0.0144603895 -0.00968625 0.064630546 -0.07514611
000380 b6 05 50 bb a2 b7 09 bd fe 39 4c 3b 2d bc 29 bb
       -0.0031741685 -0.03362239 0.0031162496 -0.0025899515
000390 0f f7 1b bd 29 b7 01 3d c5 ff 00 3d 8c 86 57 bc
       -0.03807741 0.031668816 0.03149392 -0.013154637
0003a0 20 59 0d 3c 17 dc e0 bc 0f 73 21 bc b7 92 e7 3c
       0.008627206 -0.027448697 -0.009854092 0.028268201
0003b0 a5 cc 97 bb 51 e9 71 b9 ee 02 a3 3c 48 13 3d 3c
       -0.00463255 -0.00023070468 0.019898858 0.011540242
0003c0 01 ad 57 3c c3 60 0f 3d ee f6 81 3c bb 9c a8 3a
       0.013163806 0.03500439 0.015864816 0.0012864092
0003d0 86 e4 cb bb ab c9 06 3c 38 b0 db 3b d3 f5 55 3c
       -0.0062223105 0.008226792 0.0067043565 0.013059097
0003e0 cd ae 60 bc 65 bb 30 bd fb f1 70 3d 99 57 45 3c
       -0.013713551 -0.043147463 0.05882452 0.012044811
0003f0 6a 5d 54 bd 10 01 a1 3c a2 76 08 bd a4 4e fd bc
       -0.0518469 0.019653827 -0.033316262 -0.030921288

encoder.layers.0.linear2.bias f4 [32]
000000 01 a1 30 3a a7 f7 ab bc ef 89 97 3a 40 26 e5 3c
       0.00067378586 -0.020992113 0.0011561493 0.02797234
000010 97 9b 21 bc 7d 15 52 3c 4a d8 e9 3b 4d 3f 0f 3c
       -0.009863756 0.012822506 0.0071363794 0.008743119
000020 c1 e5 ac bc 1a 3f ee 3b f0 58 a1 bc b0 b0 e0 3a
       -0.021105649 0.007270706 -0.019695729 0.0017142501
000030 17 a3 1f bd 93 92 bc 3c 1b 40 9c bc a2 3a ed ba
       -0.038973894 0.02301911 -0.019073537 -0.0018099139
000040 49 ec ee bc 8b b2 6f bc 44 54 b8 3c 84 fc a6 3c
       -0.029165404 -0.01462997 0.022501118 0.02038408
000050 6d 10 07 bd 8a 7c 85 bc e2 f9 9d bc 38 fc c6 39
       -0.03297465 -0.016294736 -0.019284192 0.0003795342
000060 9d 92 b2 bb bc 57 36 3b e0 ff ee 3c 1a 3f df 3a
       -0.0054496066 0.002782329 0.029174745 0.0017032356
000070 68 04 de 3c 07 57 24 bd aa 9a ed 3c b3 f4 a5 3c
       0.02710171 -0.04012206 0.029004414 0.020258283

encoder.layers.0.norm1.weight f4 [32]
000000 d4 fa 48 bf 88 fa 48 bf 3e f8 48 bf 62 f4 48 bf
       -0.78507733 -0.7850728 -0.7850379 -0.784979
000010 b2 f9 48 bf a6 fa 48 bf 7c f6 48 bf db f5 48 bf
       -0.78506005 -0.7850746 -0.78501105 -0.78500146
000020 e4 f9 48 bf 71 f3 48 bf 42 e6 48 bf dc f3 48 bf
       -0.785063 -0.7849646 -0.78476346 -0.784971
000030 70 f6 48 bf 1b f7 48 bf 64 f9 48 bf 4a f7 48 bf
       -0.78501034 -0.78502053 -0.7850554 -0.78502333
000040 48 f9 48 bf 54 f9 48 bf f8 f8 48 bf 3a f9 48 bf
       -0.78505373 -0.78505445 -0.78504896 -0.7850529
000050 fe fa 48 bf c6 f6 48 bf 7e fb 48 bf a5 f9 48 bf
       -0.78507984 -0.78501546 -0.78508747 -0.7850593
000060 cf 3e 32 40 2e 3f 32 40 39 3f 32 40 3b 3f 32 40
       2.7850835 2.7851062 2.7851088 2.7851093
000070 3b 3f 32 40 3b 3f 32 40 36 fd 48 bf c8 f8 48 bf
       2.7851093 2.7851093 -0.7851137 -0.7850461

encoder.layers.0.norm1.bias f4 [32]
000000 0a bf e7 bf 8a 89 e8 bf fd 2a e8 bf a9 8c e8 bf
       -1.8105175 -1.8166974 -1.8138119 -1.8167926
000010 f3 eb e8 bf bf f5 e8 bf 2b 63 e6 bf b2 6b e7 bf
       -1.8197006 -1.8199996 -1.7999014 -1.8079741
000020 a5 25 e8 bf 26 60 e7 bf 3a 5a e8 bf d6 65 e8 bf
       -1.8136488 -1.8076217 -1.8152535 -1.8156078
000030 27 aa e8 bf 9d a2 e8 bf 63 64 e8 bf 96 28 e7 bf
       -1.8176926 -1.8174626 -1.8155636 -1.8059261
000040 a4 eb e6 bf 74 85 e8 bf 53 fd e7 bf 7e 92 e8 bf
       -1.8040662 -1.8165727 -1.8124183 -1.8169706
000050 f1 22 e8 bf d6 64 e8 bf 3d 4a e7 bf 1a 89 e8 bf
       -1.8135663 -1.8155773 -1.8069531 -1.816684
000060 39 d9 e7 bf cc 4d e8 bf 3e 2a e8 bf 3a fc e8 bf
       -1.8113166 -1.8148742 -1.8137891 -1.8201973
000070 b6 2c e8 bf 9b 9a e7 bf 10 8f e7 bf f2 42 e9 bf
       -1.8138645 -1.8094057 -1.8090534 -1.8223555

encoder.layers.0.norm2.weight f4 [32]
000000 bf d0 29 3f 69 d4 10 3f e2 4f e4 3e 1f 41 02 3f
       0.66334146 0.5657411 0.44592196 0.50880617
000010 68 c9 18 3f 6d 2c 10 3f 23 9a 21 3f 01 11 15 3f
       0.5968232 0.5631779 0.6312582 0.5822907
000020 10 c4 ea 3e 8b 7a 3a 3f 8d 46 25 3f 2a bc 16 3f
       0.4585271 0.72843236 0.64560777 0.58880866
000030 c6 80 e5 3e 17 96 32 3f fc ab da 3e a2 41 12 3f
       0.4482481 0.6976027 0.4270934 0.571314
000040 d4 1a 2c 3f 07 27 0b 3f e6 04 0c 3f 79 97 1d 3f
       0.67228436 0.54356426 0.54694974 0.61559254
000050 4a df 5f 3f fb e3 87 3f 0b fa 9c 3f 86 43 a3 3f
       0.8745009 1.0616449 1.2263807 1.2754982
000060 20 37 9b 3f fb 6e 9f 3f a5 ee 88 3f b0 dc 87 3f
       1.2126198 1.2455744 1.0697829 1.0614223
000070 a0 5d 84 3f 5a 7e 88 3f 60 9d 89 3f b1 91 a2 3f
       1.0341072 1.066356 1.0751152 1.2700711

encoder.layers.0.norm2.bias f4 [32]
000000 1b 1e dd 3a b6 cf 81 bb e8 fb 90 bb 2c 51 58 bd
       0.0016869934 -0.0039615287 -0.004424561 -0.052811787
000010 a8 e6 16 3c 88 72 e9 3c 67 c3 14 bc 97 0b 50 3c
       0.009210266 0.028496996 -0.009079791 0.012698076
000020 08 f8 c7 bb 3c 65 ac bc 34 cc a2 bb e5 c8 8c bc
       -0.0061025657 -0.021044366 -0.0049681906 -0.017185638
000030 2d 0b 2b 3d 11 ee 54 3a e6 ac ac 3d 14 6b 28 bb
       0.041758705 0.0008122633 0.08431415 -0.002569859
000040 46 cb 0b 3c b5 62 2d 3b ea e0 56 ba c6 29 6e bb
       0.008532351 0.002645654 -0.0008196967 -0.0036340817
000050 c8 ff 15 bc bd a8 32 bd c2 22 ea 3d 10 dc 82 bd
       -0.009155221 -0.043617953 0.11432411 -0.0638963
000060 83 37 fd bd 9f b3 6f be b9 1d 10 bd 46 0f 0c 3c
       -0.12364104 -0.23408364 -0.035184596 0.008548563
000070 b2 6d 1b bc d0 c3 a7 ba 12 26 ff 3c 68 ab d9 3c
       -0.009486603 -0.0012799446 0.031146083 0.02657099
